{
  "storage" : "model.espresso.weights",
  "analyses" : {

  },
  "properties" : {

  },
  "format_version" : 200,
  "metadata_in_weights" : [

  ],
  "layers" : [
    {
      "name" : "input0.3",
      "weights" : {

      },
      "dst_w" : 512,
      "version" : 1,
      "dst_n" : 1,
      "dst_nd_rank" : 4,
      "type" : "reshape",
      "dst_h" : 512,
      "mode" : 0,
      "dynamic_shape" : false,
      "bottom" : "input",
      "debug_info" : "input0.3",
      "dst_seq" : 1,
      "dst_k" : 3,
      "top" : "input0.3"
    },
    {
      "pad_r" : 2,
      "fused_relu" : 0,
      "fused_tanh" : 0,
      "debug_info" : "input.47",
      "pad_fill_mode" : 0,
      "pad_b" : 2,
      "pad_l" : 2,
      "top" : "input.47",
      "K" : 3,
      "blob_biases" : 1,
      "stride_x" : 2,
      "name" : "input.47",
      "has_batch_norm" : 0,
      "type" : "convolution",
      "n_groups" : 1,
      "pad_t" : 2,
      "stride_y" : 2,
      "has_biases" : 1,
      "C" : 16,
      "bottom" : "input0.3",
      "weights" : {

      },
      "Nx" : 6,
      "pad_mode" : 0,
      "pad_value" : 0,
      "Ny" : 6,
      "n_parallel" : 1,
      "blob_weights_f16" : 3
    },
    {
      "bottom" : "input.47",
      "weights" : {

      },
      "mode" : 3,
      "debug_info" : "79__silu_sigmoid__",
      "top" : "79__silu_sigmoid__",
      "type" : "activation",
      "name" : "79__silu_sigmoid__"
    },
    {
      "bottom" : "input.47,79__silu_sigmoid__",
      "alpha" : 1,
      "operation" : 1,
      "weights" : {

      },
      "fused_relu" : 0,
      "debug_info" : "79",
      "top" : "79",
      "type" : "elementwise",
      "name" : "79",
      "beta" : 0
    },
    {
      "pad_r" : 1,
      "fused_relu" : 0,
      "fused_tanh" : 0,
      "debug_info" : "input.21",
      "pad_fill_mode" : 0,
      "pad_b" : 1,
      "pad_l" : 1,
      "top" : "input.21",
      "K" : 16,
      "blob_biases" : 5,
      "stride_x" : 2,
      "name" : "input.21",
      "has_batch_norm" : 0,
      "type" : "convolution",
      "n_groups" : 1,
      "pad_t" : 1,
      "stride_y" : 2,
      "has_biases" : 1,
      "C" : 32,
      "bottom" : "79",
      "weights" : {

      },
      "Nx" : 3,
      "pad_mode" : 0,
      "pad_value" : 0,
      "Ny" : 3,
      "n_parallel" : 1,
      "blob_weights_f16" : 7
    },
    {
      "bottom" : "input.21",
      "weights" : {

      },
      "mode" : 3,
      "debug_info" : "88__silu_sigmoid__",
      "top" : "88__silu_sigmoid__",
      "type" : "activation",
      "name" : "88__silu_sigmoid__"
    },
    {
      "bottom" : "input.21,88__silu_sigmoid__",
      "alpha" : 1,
      "operation" : 1,
      "weights" : {

      },
      "fused_relu" : 0,
      "debug_info" : "88",
      "top" : "88",
      "type" : "elementwise",
      "name" : "88",
      "beta" : 0
    },
    {
      "pad_r" : 0,
      "fused_relu" : 0,
      "fused_tanh" : 0,
      "debug_info" : "input.19",
      "pad_fill_mode" : 0,
      "pad_b" : 0,
      "pad_l" : 0,
      "top" : "input.19",
      "K" : 32,
      "blob_biases" : 9,
      "name" : "input.19",
      "has_batch_norm" : 0,
      "type" : "convolution",
      "n_groups" : 1,
      "pad_t" : 0,
      "has_biases" : 1,
      "C" : 16,
      "bottom" : "88",
      "weights" : {

      },
      "Nx" : 1,
      "pad_mode" : 0,
      "pad_value" : 0,
      "Ny" : 1,
      "n_parallel" : 1,
      "blob_weights_f16" : 11
    },
    {
      "bottom" : "input.19",
      "weights" : {

      },
      "mode" : 3,
      "debug_info" : "101__silu_sigmoid__",
      "top" : "101__silu_sigmoid__",
      "type" : "activation",
      "name" : "101__silu_sigmoid__"
    },
    {
      "bottom" : "input.19,101__silu_sigmoid__",
      "alpha" : 1,
      "operation" : 1,
      "weights" : {

      },
      "fused_relu" : 0,
      "debug_info" : "101",
      "top" : "101",
      "type" : "elementwise",
      "name" : "101",
      "beta" : 0
    },
    {
      "pad_r" : 0,
      "fused_relu" : 0,
      "fused_tanh" : 0,
      "debug_info" : "input.49",
      "pad_fill_mode" : 0,
      "pad_b" : 0,
      "pad_l" : 0,
      "top" : "input.49",
      "K" : 16,
      "blob_biases" : 13,
      "name" : "input.49",
      "has_batch_norm" : 0,
      "type" : "convolution",
      "n_groups" : 1,
      "pad_t" : 0,
      "has_biases" : 1,
      "C" : 32,
      "bottom" : "101",
      "weights" : {

      },
      "Nx" : 1,
      "pad_mode" : 0,
      "pad_value" : 0,
      "Ny" : 1,
      "n_parallel" : 1,
      "blob_weights_f16" : 15
    },
    {
      "bottom" : "input.49",
      "weights" : {

      },
      "mode" : 3,
      "debug_info" : "115__silu_sigmoid__",
      "top" : "115__silu_sigmoid__",
      "type" : "activation",
      "name" : "115__silu_sigmoid__"
    },
    {
      "bottom" : "input.49,115__silu_sigmoid__",
      "alpha" : 1,
      "operation" : 1,
      "weights" : {

      },
      "fused_relu" : 0,
      "debug_info" : "115",
      "top" : "115",
      "type" : "elementwise",
      "name" : "115",
      "beta" : 0
    },
    {
      "pad_r" : 1,
      "fused_relu" : 0,
      "fused_tanh" : 0,
      "debug_info" : "input.51",
      "pad_fill_mode" : 0,
      "pad_b" : 1,
      "pad_l" : 1,
      "top" : "input.51",
      "K" : 32,
      "blob_biases" : 17,
      "name" : "input.51",
      "has_batch_norm" : 0,
      "type" : "convolution",
      "n_groups" : 32,
      "pad_t" : 1,
      "has_biases" : 1,
      "C" : 32,
      "bottom" : "115",
      "weights" : {

      },
      "Nx" : 3,
      "pad_mode" : 0,
      "pad_value" : 0,
      "Ny" : 3,
      "n_parallel" : 1,
      "blob_weights_f16" : 19
    },
    {
      "bottom" : "input.51",
      "weights" : {

      },
      "mode" : 3,
      "debug_info" : "124__silu_sigmoid__",
      "top" : "124__silu_sigmoid__",
      "type" : "activation",
      "name" : "124__silu_sigmoid__"
    },
    {
      "bottom" : "input.51,124__silu_sigmoid__",
      "alpha" : 1,
      "operation" : 1,
      "weights" : {

      },
      "fused_relu" : 0,
      "debug_info" : "124",
      "top" : "124",
      "type" : "elementwise",
      "name" : "124",
      "beta" : 0
    },
    {
      "pad_r" : 0,
      "fused_relu" : 0,
      "fused_tanh" : 0,
      "debug_info" : "input.27",
      "pad_fill_mode" : 0,
      "pad_b" : 0,
      "pad_l" : 0,
      "top" : "input.27",
      "K" : 32,
      "blob_biases" : 21,
      "name" : "input.27",
      "has_batch_norm" : 0,
      "type" : "convolution",
      "n_groups" : 1,
      "pad_t" : 0,
      "has_biases" : 1,
      "C" : 16,
      "bottom" : "124",
      "weights" : {

      },
      "Nx" : 1,
      "pad_mode" : 0,
      "pad_value" : 0,
      "Ny" : 1,
      "n_parallel" : 1,
      "blob_weights_f16" : 23
    },
    {
      "bottom" : "input.27",
      "weights" : {

      },
      "mode" : 3,
      "debug_info" : "133__silu_sigmoid__",
      "top" : "133__silu_sigmoid__",
      "type" : "activation",
      "name" : "133__silu_sigmoid__"
    },
    {
      "bottom" : "input.27,133__silu_sigmoid__",
      "alpha" : 1,
      "operation" : 1,
      "weights" : {

      },
      "fused_relu" : 0,
      "debug_info" : "133",
      "top" : "133",
      "type" : "elementwise",
      "name" : "133",
      "beta" : 0
    },
    {
      "bottom" : "101,133",
      "alpha" : 1,
      "operation" : 0,
      "weights" : {

      },
      "fused_relu" : 0,
      "debug_info" : "134",
      "top" : "134",
      "type" : "elementwise",
      "name" : "134",
      "beta" : 0
    },
    {
      "pad_r" : 0,
      "fused_relu" : 0,
      "fused_tanh" : 0,
      "debug_info" : "input.53",
      "pad_fill_mode" : 0,
      "pad_b" : 0,
      "pad_l" : 0,
      "top" : "input.53",
      "K" : 32,
      "blob_biases" : 25,
      "name" : "input.53",
      "has_batch_norm" : 0,
      "type" : "convolution",
      "n_groups" : 1,
      "pad_t" : 0,
      "has_biases" : 1,
      "C" : 16,
      "bottom" : "88",
      "weights" : {

      },
      "Nx" : 1,
      "pad_mode" : 0,
      "pad_value" : 0,
      "Ny" : 1,
      "n_parallel" : 1,
      "blob_weights_f16" : 27
    },
    {
      "bottom" : "input.53",
      "weights" : {

      },
      "mode" : 3,
      "debug_info" : "143__silu_sigmoid__",
      "top" : "143__silu_sigmoid__",
      "type" : "activation",
      "name" : "143__silu_sigmoid__"
    },
    {
      "bottom" : "input.53,143__silu_sigmoid__",
      "alpha" : 1,
      "operation" : 1,
      "weights" : {

      },
      "fused_relu" : 0,
      "debug_info" : "143",
      "top" : "143",
      "type" : "elementwise",
      "name" : "143",
      "beta" : 0
    },
    {
      "weights" : {

      },
      "debug_info" : "input.31",
      "top" : "input.31",
      "type" : "concat",
      "name" : "input.31",
      "bottom" : "134,143"
    },
    {
      "pad_r" : 0,
      "fused_relu" : 0,
      "fused_tanh" : 0,
      "debug_info" : "input0.2",
      "pad_fill_mode" : 0,
      "pad_b" : 0,
      "pad_l" : 0,
      "top" : "input0.2",
      "K" : 32,
      "blob_biases" : 29,
      "name" : "input0.2",
      "has_batch_norm" : 0,
      "type" : "convolution",
      "n_groups" : 1,
      "pad_t" : 0,
      "has_biases" : 1,
      "C" : 32,
      "bottom" : "input.31",
      "weights" : {

      },
      "Nx" : 1,
      "pad_mode" : 0,
      "pad_value" : 0,
      "Ny" : 1,
      "n_parallel" : 1,
      "blob_weights_f16" : 31
    },
    {
      "bottom" : "input0.2",
      "weights" : {

      },
      "mode" : 3,
      "debug_info" : "154__silu_sigmoid__",
      "top" : "154__silu_sigmoid__",
      "type" : "activation",
      "name" : "154__silu_sigmoid__"
    },
    {
      "bottom" : "input0.2,154__silu_sigmoid__",
      "alpha" : 1,
      "operation" : 1,
      "weights" : {

      },
      "fused_relu" : 0,
      "debug_info" : "154",
      "top" : "154",
      "type" : "elementwise",
      "name" : "154",
      "beta" : 0
    },
    {
      "pad_r" : 0,
      "fused_relu" : 0,
      "fused_tanh" : 0,
      "debug_info" : "input.23",
      "pad_fill_mode" : 0,
      "pad_b" : 0,
      "pad_l" : 0,
      "top" : "input.23",
      "K" : 32,
      "blob_biases" : 33,
      "name" : "input.23",
      "has_batch_norm" : 0,
      "type" : "convolution",
      "n_groups" : 1,
      "pad_t" : 0,
      "has_biases" : 1,
      "C" : 64,
      "bottom" : "154",
      "weights" : {

      },
      "Nx" : 1,
      "pad_mode" : 0,
      "pad_value" : 0,
      "Ny" : 1,
      "n_parallel" : 1,
      "blob_weights_f16" : 35
    },
    {
      "bottom" : "input.23",
      "weights" : {

      },
      "mode" : 3,
      "debug_info" : "166__silu_sigmoid__",
      "top" : "166__silu_sigmoid__",
      "type" : "activation",
      "name" : "166__silu_sigmoid__"
    },
    {
      "bottom" : "input.23,166__silu_sigmoid__",
      "alpha" : 1,
      "operation" : 1,
      "weights" : {

      },
      "fused_relu" : 0,
      "debug_info" : "166",
      "top" : "166",
      "type" : "elementwise",
      "name" : "166",
      "beta" : 0
    },
    {
      "pad_r" : 1,
      "fused_relu" : 0,
      "fused_tanh" : 0,
      "debug_info" : "input.25",
      "pad_fill_mode" : 0,
      "pad_b" : 1,
      "pad_l" : 1,
      "top" : "input.25",
      "K" : 64,
      "blob_biases" : 37,
      "stride_x" : 2,
      "name" : "input.25",
      "has_batch_norm" : 0,
      "type" : "convolution",
      "n_groups" : 64,
      "pad_t" : 1,
      "stride_y" : 2,
      "has_biases" : 1,
      "C" : 64,
      "bottom" : "166",
      "weights" : {

      },
      "Nx" : 3,
      "pad_mode" : 0,
      "pad_value" : 0,
      "Ny" : 3,
      "n_parallel" : 1,
      "blob_weights_f16" : 39
    },
    {
      "bottom" : "input.25",
      "weights" : {

      },
      "mode" : 3,
      "debug_info" : "175__silu_sigmoid__",
      "top" : "175__silu_sigmoid__",
      "type" : "activation",
      "name" : "175__silu_sigmoid__"
    },
    {
      "bottom" : "input.25,175__silu_sigmoid__",
      "alpha" : 1,
      "operation" : 1,
      "weights" : {

      },
      "fused_relu" : 0,
      "debug_info" : "175",
      "top" : "175",
      "type" : "elementwise",
      "name" : "175",
      "beta" : 0
    },
    {
      "pad_r" : 0,
      "fused_relu" : 0,
      "fused_tanh" : 0,
      "debug_info" : "input.29",
      "pad_fill_mode" : 0,
      "pad_b" : 0,
      "pad_l" : 0,
      "top" : "input.29",
      "K" : 64,
      "blob_biases" : 41,
      "name" : "input.29",
      "has_batch_norm" : 0,
      "type" : "convolution",
      "n_groups" : 1,
      "pad_t" : 0,
      "has_biases" : 1,
      "C" : 64,
      "bottom" : "175",
      "weights" : {

      },
      "Nx" : 1,
      "pad_mode" : 0,
      "pad_value" : 0,
      "Ny" : 1,
      "n_parallel" : 1,
      "blob_weights_f16" : 43
    },
    {
      "bottom" : "input.29",
      "weights" : {

      },
      "mode" : 3,
      "debug_info" : "184__silu_sigmoid__",
      "top" : "184__silu_sigmoid__",
      "type" : "activation",
      "name" : "184__silu_sigmoid__"
    },
    {
      "bottom" : "input.29,184__silu_sigmoid__",
      "alpha" : 1,
      "operation" : 1,
      "weights" : {

      },
      "fused_relu" : 0,
      "debug_info" : "184",
      "top" : "184",
      "type" : "elementwise",
      "name" : "184",
      "beta" : 0
    },
    {
      "pad_r" : 0,
      "fused_relu" : 0,
      "fused_tanh" : 0,
      "debug_info" : "input.39",
      "pad_fill_mode" : 0,
      "pad_b" : 0,
      "pad_l" : 0,
      "top" : "input.39",
      "K" : 64,
      "blob_biases" : 45,
      "name" : "input.39",
      "has_batch_norm" : 0,
      "type" : "convolution",
      "n_groups" : 1,
      "pad_t" : 0,
      "has_biases" : 1,
      "C" : 32,
      "bottom" : "184",
      "weights" : {

      },
      "Nx" : 1,
      "pad_mode" : 0,
      "pad_value" : 0,
      "Ny" : 1,
      "n_parallel" : 1,
      "blob_weights_f16" : 47
    },
    {
      "bottom" : "input.39",
      "weights" : {

      },
      "mode" : 3,
      "debug_info" : "197__silu_sigmoid__",
      "top" : "197__silu_sigmoid__",
      "type" : "activation",
      "name" : "197__silu_sigmoid__"
    },
    {
      "bottom" : "input.39,197__silu_sigmoid__",
      "alpha" : 1,
      "operation" : 1,
      "weights" : {

      },
      "fused_relu" : 0,
      "debug_info" : "197",
      "top" : "197",
      "type" : "elementwise",
      "name" : "197",
      "beta" : 0
    },
    {
      "pad_r" : 0,
      "fused_relu" : 0,
      "fused_tanh" : 0,
      "debug_info" : "input.41",
      "pad_fill_mode" : 0,
      "pad_b" : 0,
      "pad_l" : 0,
      "top" : "input.41",
      "K" : 32,
      "blob_biases" : 49,
      "name" : "input.41",
      "has_batch_norm" : 0,
      "type" : "convolution",
      "n_groups" : 1,
      "pad_t" : 0,
      "has_biases" : 1,
      "C" : 64,
      "bottom" : "197",
      "weights" : {

      },
      "Nx" : 1,
      "pad_mode" : 0,
      "pad_value" : 0,
      "Ny" : 1,
      "n_parallel" : 1,
      "blob_weights_f16" : 51
    },
    {
      "bottom" : "input.41",
      "weights" : {

      },
      "mode" : 3,
      "debug_info" : "212__silu_sigmoid__",
      "top" : "212__silu_sigmoid__",
      "type" : "activation",
      "name" : "212__silu_sigmoid__"
    },
    {
      "bottom" : "input.41,212__silu_sigmoid__",
      "alpha" : 1,
      "operation" : 1,
      "weights" : {

      },
      "fused_relu" : 0,
      "debug_info" : "212",
      "top" : "212",
      "type" : "elementwise",
      "name" : "212",
      "beta" : 0
    },
    {
      "pad_r" : 1,
      "fused_relu" : 0,
      "fused_tanh" : 0,
      "debug_info" : "input.43",
      "pad_fill_mode" : 0,
      "pad_b" : 1,
      "pad_l" : 1,
      "top" : "input.43",
      "K" : 64,
      "blob_biases" : 53,
      "name" : "input.43",
      "has_batch_norm" : 0,
      "type" : "convolution",
      "n_groups" : 64,
      "pad_t" : 1,
      "has_biases" : 1,
      "C" : 64,
      "bottom" : "212",
      "weights" : {

      },
      "Nx" : 3,
      "pad_mode" : 0,
      "pad_value" : 0,
      "Ny" : 3,
      "n_parallel" : 1,
      "blob_weights_f16" : 55
    },
    {
      "bottom" : "input.43",
      "weights" : {

      },
      "mode" : 3,
      "debug_info" : "221__silu_sigmoid__",
      "top" : "221__silu_sigmoid__",
      "type" : "activation",
      "name" : "221__silu_sigmoid__"
    },
    {
      "bottom" : "input.43,221__silu_sigmoid__",
      "alpha" : 1,
      "operation" : 1,
      "weights" : {

      },
      "fused_relu" : 0,
      "debug_info" : "221",
      "top" : "221",
      "type" : "elementwise",
      "name" : "221",
      "beta" : 0
    },
    {
      "pad_r" : 0,
      "fused_relu" : 0,
      "fused_tanh" : 0,
      "debug_info" : "input.45",
      "pad_fill_mode" : 0,
      "pad_b" : 0,
      "pad_l" : 0,
      "top" : "input.45",
      "K" : 64,
      "blob_biases" : 57,
      "name" : "input.45",
      "has_batch_norm" : 0,
      "type" : "convolution",
      "n_groups" : 1,
      "pad_t" : 0,
      "has_biases" : 1,
      "C" : 32,
      "bottom" : "221",
      "weights" : {

      },
      "Nx" : 1,
      "pad_mode" : 0,
      "pad_value" : 0,
      "Ny" : 1,
      "n_parallel" : 1,
      "blob_weights_f16" : 59
    },
    {
      "bottom" : "input.45",
      "weights" : {

      },
      "mode" : 3,
      "debug_info" : "230__silu_sigmoid__",
      "top" : "230__silu_sigmoid__",
      "type" : "activation",
      "name" : "230__silu_sigmoid__"
    },
    {
      "bottom" : "input.45,230__silu_sigmoid__",
      "alpha" : 1,
      "operation" : 1,
      "weights" : {

      },
      "fused_relu" : 0,
      "debug_info" : "230",
      "top" : "230",
      "type" : "elementwise",
      "name" : "230",
      "beta" : 0
    },
    {
      "bottom" : "197,230",
      "alpha" : 1,
      "operation" : 0,
      "weights" : {

      },
      "fused_relu" : 0,
      "debug_info" : "input.55",
      "top" : "input.55",
      "type" : "elementwise",
      "name" : "input.55",
      "beta" : 0
    },
    {
      "pad_r" : 0,
      "fused_relu" : 0,
      "fused_tanh" : 0,
      "debug_info" : "input.33",
      "pad_fill_mode" : 0,
      "pad_b" : 0,
      "pad_l" : 0,
      "top" : "input.33",
      "K" : 32,
      "blob_biases" : 61,
      "name" : "input.33",
      "has_batch_norm" : 0,
      "type" : "convolution",
      "n_groups" : 1,
      "pad_t" : 0,
      "has_biases" : 1,
      "C" : 64,
      "bottom" : "input.55",
      "weights" : {

      },
      "Nx" : 1,
      "pad_mode" : 0,
      "pad_value" : 0,
      "Ny" : 1,
      "n_parallel" : 1,
      "blob_weights_f16" : 63
    },
    {
      "bottom" : "input.33",
      "weights" : {

      },
      "mode" : 3,
      "debug_info" : "244__silu_sigmoid__",
      "top" : "244__silu_sigmoid__",
      "type" : "activation",
      "name" : "244__silu_sigmoid__"
    },
    {
      "bottom" : "input.33,244__silu_sigmoid__",
      "alpha" : 1,
      "operation" : 1,
      "weights" : {

      },
      "fused_relu" : 0,
      "debug_info" : "244",
      "top" : "244",
      "type" : "elementwise",
      "name" : "244",
      "beta" : 0
    },
    {
      "pad_r" : 1,
      "fused_relu" : 0,
      "fused_tanh" : 0,
      "debug_info" : "input.35",
      "pad_fill_mode" : 0,
      "pad_b" : 1,
      "pad_l" : 1,
      "top" : "input.35",
      "K" : 64,
      "blob_biases" : 65,
      "name" : "input.35",
      "has_batch_norm" : 0,
      "type" : "convolution",
      "n_groups" : 64,
      "pad_t" : 1,
      "has_biases" : 1,
      "C" : 64,
      "bottom" : "244",
      "weights" : {

      },
      "Nx" : 3,
      "pad_mode" : 0,
      "pad_value" : 0,
      "Ny" : 3,
      "n_parallel" : 1,
      "blob_weights_f16" : 67
    },
    {
      "bottom" : "input.35",
      "weights" : {

      },
      "mode" : 3,
      "debug_info" : "253__silu_sigmoid__",
      "top" : "253__silu_sigmoid__",
      "type" : "activation",
      "name" : "253__silu_sigmoid__"
    },
    {
      "bottom" : "input.35,253__silu_sigmoid__",
      "alpha" : 1,
      "operation" : 1,
      "weights" : {

      },
      "fused_relu" : 0,
      "debug_info" : "253",
      "top" : "253",
      "type" : "elementwise",
      "name" : "253",
      "beta" : 0
    },
    {
      "pad_r" : 0,
      "fused_relu" : 0,
      "fused_tanh" : 0,
      "debug_info" : "input.61",
      "pad_fill_mode" : 0,
      "pad_b" : 0,
      "pad_l" : 0,
      "top" : "input.61",
      "K" : 64,
      "blob_biases" : 69,
      "name" : "input.61",
      "has_batch_norm" : 0,
      "type" : "convolution",
      "n_groups" : 1,
      "pad_t" : 0,
      "has_biases" : 1,
      "C" : 32,
      "bottom" : "253",
      "weights" : {

      },
      "Nx" : 1,
      "pad_mode" : 0,
      "pad_value" : 0,
      "Ny" : 1,
      "n_parallel" : 1,
      "blob_weights_f16" : 71
    },
    {
      "bottom" : "input.61",
      "weights" : {

      },
      "mode" : 3,
      "debug_info" : "262__silu_sigmoid__",
      "top" : "262__silu_sigmoid__",
      "type" : "activation",
      "name" : "262__silu_sigmoid__"
    },
    {
      "bottom" : "input.61,262__silu_sigmoid__",
      "alpha" : 1,
      "operation" : 1,
      "weights" : {

      },
      "fused_relu" : 0,
      "debug_info" : "262",
      "top" : "262",
      "type" : "elementwise",
      "name" : "262",
      "beta" : 0
    },
    {
      "bottom" : "input.55,262",
      "alpha" : 1,
      "operation" : 0,
      "weights" : {

      },
      "fused_relu" : 0,
      "debug_info" : "263",
      "top" : "263",
      "type" : "elementwise",
      "name" : "263",
      "beta" : 0
    },
    {
      "pad_r" : 0,
      "fused_relu" : 0,
      "fused_tanh" : 0,
      "debug_info" : "input.37",
      "pad_fill_mode" : 0,
      "pad_b" : 0,
      "pad_l" : 0,
      "top" : "input.37",
      "K" : 64,
      "blob_biases" : 73,
      "name" : "input.37",
      "has_batch_norm" : 0,
      "type" : "convolution",
      "n_groups" : 1,
      "pad_t" : 0,
      "has_biases" : 1,
      "C" : 32,
      "bottom" : "184",
      "weights" : {

      },
      "Nx" : 1,
      "pad_mode" : 0,
      "pad_value" : 0,
      "Ny" : 1,
      "n_parallel" : 1,
      "blob_weights_f16" : 75
    },
    {
      "bottom" : "input.37",
      "weights" : {

      },
      "mode" : 3,
      "debug_info" : "272__silu_sigmoid__",
      "top" : "272__silu_sigmoid__",
      "type" : "activation",
      "name" : "272__silu_sigmoid__"
    },
    {
      "bottom" : "input.37,272__silu_sigmoid__",
      "alpha" : 1,
      "operation" : 1,
      "weights" : {

      },
      "fused_relu" : 0,
      "debug_info" : "272",
      "top" : "272",
      "type" : "elementwise",
      "name" : "272",
      "beta" : 0
    },
    {
      "weights" : {

      },
      "debug_info" : "input.65",
      "top" : "input.65",
      "type" : "concat",
      "name" : "input.65",
      "bottom" : "263,272"
    },
    {
      "pad_r" : 0,
      "fused_relu" : 0,
      "fused_tanh" : 0,
      "debug_info" : "input0.4",
      "pad_fill_mode" : 0,
      "pad_b" : 0,
      "pad_l" : 0,
      "top" : "input0.4",
      "K" : 64,
      "blob_biases" : 77,
      "name" : "input0.4",
      "has_batch_norm" : 0,
      "type" : "convolution",
      "n_groups" : 1,
      "pad_t" : 0,
      "has_biases" : 1,
      "C" : 64,
      "bottom" : "input.65",
      "weights" : {

      },
      "Nx" : 1,
      "pad_mode" : 0,
      "pad_value" : 0,
      "Ny" : 1,
      "n_parallel" : 1,
      "blob_weights_f16" : 79
    },
    {
      "bottom" : "input0.4",
      "weights" : {

      },
      "mode" : 3,
      "debug_info" : "283__silu_sigmoid__",
      "top" : "283__silu_sigmoid__",
      "type" : "activation",
      "name" : "283__silu_sigmoid__"
    },
    {
      "bottom" : "input0.4,283__silu_sigmoid__",
      "alpha" : 1,
      "operation" : 1,
      "weights" : {

      },
      "fused_relu" : 0,
      "debug_info" : "283",
      "top" : "283",
      "type" : "elementwise",
      "name" : "283",
      "beta" : 0
    },
    {
      "pad_r" : 0,
      "fused_relu" : 0,
      "fused_tanh" : 0,
      "debug_info" : "input.57",
      "pad_fill_mode" : 0,
      "pad_b" : 0,
      "pad_l" : 0,
      "top" : "input.57",
      "K" : 64,
      "blob_biases" : 81,
      "name" : "input.57",
      "has_batch_norm" : 0,
      "type" : "convolution",
      "n_groups" : 1,
      "pad_t" : 0,
      "has_biases" : 1,
      "C" : 128,
      "bottom" : "283",
      "weights" : {

      },
      "Nx" : 1,
      "pad_mode" : 0,
      "pad_value" : 0,
      "Ny" : 1,
      "n_parallel" : 1,
      "blob_weights_f16" : 83
    },
    {
      "bottom" : "input.57",
      "weights" : {

      },
      "mode" : 3,
      "debug_info" : "295__silu_sigmoid__",
      "top" : "295__silu_sigmoid__",
      "type" : "activation",
      "name" : "295__silu_sigmoid__"
    },
    {
      "bottom" : "input.57,295__silu_sigmoid__",
      "alpha" : 1,
      "operation" : 1,
      "weights" : {

      },
      "fused_relu" : 0,
      "debug_info" : "295",
      "top" : "295",
      "type" : "elementwise",
      "name" : "295",
      "beta" : 0
    },
    {
      "pad_r" : 1,
      "fused_relu" : 0,
      "fused_tanh" : 0,
      "debug_info" : "input.59",
      "pad_fill_mode" : 0,
      "pad_b" : 1,
      "pad_l" : 1,
      "top" : "input.59",
      "K" : 128,
      "blob_biases" : 85,
      "stride_x" : 2,
      "name" : "input.59",
      "has_batch_norm" : 0,
      "type" : "convolution",
      "n_groups" : 128,
      "pad_t" : 1,
      "stride_y" : 2,
      "has_biases" : 1,
      "C" : 128,
      "bottom" : "295",
      "weights" : {

      },
      "Nx" : 3,
      "pad_mode" : 0,
      "pad_value" : 0,
      "Ny" : 3,
      "n_parallel" : 1,
      "blob_weights_f16" : 87
    },
    {
      "bottom" : "input.59",
      "weights" : {

      },
      "mode" : 3,
      "debug_info" : "304__silu_sigmoid__",
      "top" : "304__silu_sigmoid__",
      "type" : "activation",
      "name" : "304__silu_sigmoid__"
    },
    {
      "bottom" : "input.59,304__silu_sigmoid__",
      "alpha" : 1,
      "operation" : 1,
      "weights" : {

      },
      "fused_relu" : 0,
      "debug_info" : "304",
      "top" : "304",
      "type" : "elementwise",
      "name" : "304",
      "beta" : 0
    },
    {
      "pad_r" : 0,
      "fused_relu" : 0,
      "fused_tanh" : 0,
      "debug_info" : "input.63",
      "pad_fill_mode" : 0,
      "pad_b" : 0,
      "pad_l" : 0,
      "top" : "input.63",
      "K" : 128,
      "blob_biases" : 89,
      "name" : "input.63",
      "has_batch_norm" : 0,
      "type" : "convolution",
      "n_groups" : 1,
      "pad_t" : 0,
      "has_biases" : 1,
      "C" : 128,
      "bottom" : "304",
      "weights" : {

      },
      "Nx" : 1,
      "pad_mode" : 0,
      "pad_value" : 0,
      "Ny" : 1,
      "n_parallel" : 1,
      "blob_weights_f16" : 91
    },
    {
      "bottom" : "input.63",
      "weights" : {

      },
      "mode" : 3,
      "debug_info" : "313__silu_sigmoid__",
      "top" : "313__silu_sigmoid__",
      "type" : "activation",
      "name" : "313__silu_sigmoid__"
    },
    {
      "bottom" : "input.63,313__silu_sigmoid__",
      "alpha" : 1,
      "operation" : 1,
      "weights" : {

      },
      "fused_relu" : 0,
      "debug_info" : "313",
      "top" : "313",
      "type" : "elementwise",
      "name" : "313",
      "beta" : 0
    },
    {
      "pad_r" : 0,
      "fused_relu" : 0,
      "fused_tanh" : 0,
      "debug_info" : "input.73",
      "pad_fill_mode" : 0,
      "pad_b" : 0,
      "pad_l" : 0,
      "top" : "input.73",
      "K" : 128,
      "blob_biases" : 93,
      "name" : "input.73",
      "has_batch_norm" : 0,
      "type" : "convolution",
      "n_groups" : 1,
      "pad_t" : 0,
      "has_biases" : 1,
      "C" : 64,
      "bottom" : "313",
      "weights" : {

      },
      "Nx" : 1,
      "pad_mode" : 0,
      "pad_value" : 0,
      "Ny" : 1,
      "n_parallel" : 1,
      "blob_weights_f16" : 95
    },
    {
      "bottom" : "input.73",
      "weights" : {

      },
      "mode" : 3,
      "debug_info" : "326__silu_sigmoid__",
      "top" : "326__silu_sigmoid__",
      "type" : "activation",
      "name" : "326__silu_sigmoid__"
    },
    {
      "bottom" : "input.73,326__silu_sigmoid__",
      "alpha" : 1,
      "operation" : 1,
      "weights" : {

      },
      "fused_relu" : 0,
      "debug_info" : "326",
      "top" : "326",
      "type" : "elementwise",
      "name" : "326",
      "beta" : 0
    },
    {
      "pad_r" : 0,
      "fused_relu" : 0,
      "fused_tanh" : 0,
      "debug_info" : "input.5",
      "pad_fill_mode" : 0,
      "pad_b" : 0,
      "pad_l" : 0,
      "top" : "input.5",
      "K" : 64,
      "blob_biases" : 97,
      "name" : "input.5",
      "has_batch_norm" : 0,
      "type" : "convolution",
      "n_groups" : 1,
      "pad_t" : 0,
      "has_biases" : 1,
      "C" : 128,
      "bottom" : "326",
      "weights" : {

      },
      "Nx" : 1,
      "pad_mode" : 0,
      "pad_value" : 0,
      "Ny" : 1,
      "n_parallel" : 1,
      "blob_weights_f16" : 99
    },
    {
      "bottom" : "input.5",
      "weights" : {

      },
      "mode" : 3,
      "debug_info" : "342__silu_sigmoid__",
      "top" : "342__silu_sigmoid__",
      "type" : "activation",
      "name" : "342__silu_sigmoid__"
    },
    {
      "bottom" : "input.5,342__silu_sigmoid__",
      "alpha" : 1,
      "operation" : 1,
      "weights" : {

      },
      "fused_relu" : 0,
      "debug_info" : "342",
      "top" : "342",
      "type" : "elementwise",
      "name" : "342",
      "beta" : 0
    },
    {
      "pad_r" : 1,
      "fused_relu" : 0,
      "fused_tanh" : 0,
      "debug_info" : "input.7",
      "pad_fill_mode" : 0,
      "pad_b" : 1,
      "pad_l" : 1,
      "top" : "input.7",
      "K" : 128,
      "blob_biases" : 101,
      "name" : "input.7",
      "has_batch_norm" : 0,
      "type" : "convolution",
      "n_groups" : 128,
      "pad_t" : 1,
      "has_biases" : 1,
      "C" : 128,
      "bottom" : "342",
      "weights" : {

      },
      "Nx" : 3,
      "pad_mode" : 0,
      "pad_value" : 0,
      "Ny" : 3,
      "n_parallel" : 1,
      "blob_weights_f16" : 103
    },
    {
      "bottom" : "input.7",
      "weights" : {

      },
      "mode" : 3,
      "debug_info" : "351__silu_sigmoid__",
      "top" : "351__silu_sigmoid__",
      "type" : "activation",
      "name" : "351__silu_sigmoid__"
    },
    {
      "bottom" : "input.7,351__silu_sigmoid__",
      "alpha" : 1,
      "operation" : 1,
      "weights" : {

      },
      "fused_relu" : 0,
      "debug_info" : "351",
      "top" : "351",
      "type" : "elementwise",
      "name" : "351",
      "beta" : 0
    },
    {
      "pad_r" : 0,
      "fused_relu" : 0,
      "fused_tanh" : 0,
      "debug_info" : "input.9",
      "pad_fill_mode" : 0,
      "pad_b" : 0,
      "pad_l" : 0,
      "top" : "input.9",
      "K" : 128,
      "blob_biases" : 105,
      "name" : "input.9",
      "has_batch_norm" : 0,
      "type" : "convolution",
      "n_groups" : 1,
      "pad_t" : 0,
      "has_biases" : 1,
      "C" : 64,
      "bottom" : "351",
      "weights" : {

      },
      "Nx" : 1,
      "pad_mode" : 0,
      "pad_value" : 0,
      "Ny" : 1,
      "n_parallel" : 1,
      "blob_weights_f16" : 107
    },
    {
      "bottom" : "input.9",
      "weights" : {

      },
      "mode" : 3,
      "debug_info" : "360__silu_sigmoid__",
      "top" : "360__silu_sigmoid__",
      "type" : "activation",
      "name" : "360__silu_sigmoid__"
    },
    {
      "bottom" : "input.9,360__silu_sigmoid__",
      "alpha" : 1,
      "operation" : 1,
      "weights" : {

      },
      "fused_relu" : 0,
      "debug_info" : "360",
      "top" : "360",
      "type" : "elementwise",
      "name" : "360",
      "beta" : 0
    },
    {
      "bottom" : "326,360",
      "alpha" : 1,
      "operation" : 0,
      "weights" : {

      },
      "fused_relu" : 0,
      "debug_info" : "input.11",
      "top" : "input.11",
      "type" : "elementwise",
      "name" : "input.11",
      "beta" : 0
    },
    {
      "pad_r" : 0,
      "fused_relu" : 0,
      "fused_tanh" : 0,
      "debug_info" : "input.13",
      "pad_fill_mode" : 0,
      "pad_b" : 0,
      "pad_l" : 0,
      "top" : "input.13",
      "K" : 64,
      "blob_biases" : 109,
      "name" : "input.13",
      "has_batch_norm" : 0,
      "type" : "convolution",
      "n_groups" : 1,
      "pad_t" : 0,
      "has_biases" : 1,
      "C" : 128,
      "bottom" : "input.11",
      "weights" : {

      },
      "Nx" : 1,
      "pad_mode" : 0,
      "pad_value" : 0,
      "Ny" : 1,
      "n_parallel" : 1,
      "blob_weights_f16" : 111
    },
    {
      "bottom" : "input.13",
      "weights" : {

      },
      "mode" : 3,
      "debug_info" : "374__silu_sigmoid__",
      "top" : "374__silu_sigmoid__",
      "type" : "activation",
      "name" : "374__silu_sigmoid__"
    },
    {
      "bottom" : "input.13,374__silu_sigmoid__",
      "alpha" : 1,
      "operation" : 1,
      "weights" : {

      },
      "fused_relu" : 0,
      "debug_info" : "374",
      "top" : "374",
      "type" : "elementwise",
      "name" : "374",
      "beta" : 0
    },
    {
      "pad_r" : 1,
      "fused_relu" : 0,
      "fused_tanh" : 0,
      "debug_info" : "input.15",
      "pad_fill_mode" : 0,
      "pad_b" : 1,
      "pad_l" : 1,
      "top" : "input.15",
      "K" : 128,
      "blob_biases" : 113,
      "name" : "input.15",
      "has_batch_norm" : 0,
      "type" : "convolution",
      "n_groups" : 128,
      "pad_t" : 1,
      "has_biases" : 1,
      "C" : 128,
      "bottom" : "374",
      "weights" : {

      },
      "Nx" : 3,
      "pad_mode" : 0,
      "pad_value" : 0,
      "Ny" : 3,
      "n_parallel" : 1,
      "blob_weights_f16" : 115
    },
    {
      "bottom" : "input.15",
      "weights" : {

      },
      "mode" : 3,
      "debug_info" : "383__silu_sigmoid__",
      "top" : "383__silu_sigmoid__",
      "type" : "activation",
      "name" : "383__silu_sigmoid__"
    },
    {
      "bottom" : "input.15,383__silu_sigmoid__",
      "alpha" : 1,
      "operation" : 1,
      "weights" : {

      },
      "fused_relu" : 0,
      "debug_info" : "383",
      "top" : "383",
      "type" : "elementwise",
      "name" : "383",
      "beta" : 0
    },
    {
      "pad_r" : 0,
      "fused_relu" : 0,
      "fused_tanh" : 0,
      "debug_info" : "input.17",
      "pad_fill_mode" : 0,
      "pad_b" : 0,
      "pad_l" : 0,
      "top" : "input.17",
      "K" : 128,
      "blob_biases" : 117,
      "name" : "input.17",
      "has_batch_norm" : 0,
      "type" : "convolution",
      "n_groups" : 1,
      "pad_t" : 0,
      "has_biases" : 1,
      "C" : 64,
      "bottom" : "383",
      "weights" : {

      },
      "Nx" : 1,
      "pad_mode" : 0,
      "pad_value" : 0,
      "Ny" : 1,
      "n_parallel" : 1,
      "blob_weights_f16" : 119
    },
    {
      "bottom" : "input.17",
      "weights" : {

      },
      "mode" : 3,
      "debug_info" : "392__silu_sigmoid__",
      "top" : "392__silu_sigmoid__",
      "type" : "activation",
      "name" : "392__silu_sigmoid__"
    },
    {
      "bottom" : "input.17,392__silu_sigmoid__",
      "alpha" : 1,
      "operation" : 1,
      "weights" : {

      },
      "fused_relu" : 0,
      "debug_info" : "392",
      "top" : "392",
      "type" : "elementwise",
      "name" : "392",
      "beta" : 0
    },
    {
      "bottom" : "input.11,392",
      "alpha" : 1,
      "operation" : 0,
      "weights" : {

      },
      "fused_relu" : 0,
      "debug_info" : "input.3",
      "top" : "input.3",
      "type" : "elementwise",
      "name" : "input.3",
      "beta" : 0
    },
    {
      "pad_r" : 0,
      "fused_relu" : 0,
      "fused_tanh" : 0,
      "debug_info" : "input.67",
      "pad_fill_mode" : 0,
      "pad_b" : 0,
      "pad_l" : 0,
      "top" : "input.67",
      "K" : 64,
      "blob_biases" : 121,
      "name" : "input.67",
      "has_batch_norm" : 0,
      "type" : "convolution",
      "n_groups" : 1,
      "pad_t" : 0,
      "has_biases" : 1,
      "C" : 128,
      "bottom" : "input.3",
      "weights" : {

      },
      "Nx" : 1,
      "pad_mode" : 0,
      "pad_value" : 0,
      "Ny" : 1,
      "n_parallel" : 1,
      "blob_weights_f16" : 123
    },
    {
      "bottom" : "input.67",
      "weights" : {

      },
      "mode" : 3,
      "debug_info" : "406__silu_sigmoid__",
      "top" : "406__silu_sigmoid__",
      "type" : "activation",
      "name" : "406__silu_sigmoid__"
    },
    {
      "bottom" : "input.67,406__silu_sigmoid__",
      "alpha" : 1,
      "operation" : 1,
      "weights" : {

      },
      "fused_relu" : 0,
      "debug_info" : "406",
      "top" : "406",
      "type" : "elementwise",
      "name" : "406",
      "beta" : 0
    },
    {
      "pad_r" : 1,
      "fused_relu" : 0,
      "fused_tanh" : 0,
      "debug_info" : "input.69",
      "pad_fill_mode" : 0,
      "pad_b" : 1,
      "pad_l" : 1,
      "top" : "input.69",
      "K" : 128,
      "blob_biases" : 125,
      "name" : "input.69",
      "has_batch_norm" : 0,
      "type" : "convolution",
      "n_groups" : 128,
      "pad_t" : 1,
      "has_biases" : 1,
      "C" : 128,
      "bottom" : "406",
      "weights" : {

      },
      "Nx" : 3,
      "pad_mode" : 0,
      "pad_value" : 0,
      "Ny" : 3,
      "n_parallel" : 1,
      "blob_weights_f16" : 127
    },
    {
      "bottom" : "input.69",
      "weights" : {

      },
      "mode" : 3,
      "debug_info" : "415__silu_sigmoid__",
      "top" : "415__silu_sigmoid__",
      "type" : "activation",
      "name" : "415__silu_sigmoid__"
    },
    {
      "bottom" : "input.69,415__silu_sigmoid__",
      "alpha" : 1,
      "operation" : 1,
      "weights" : {

      },
      "fused_relu" : 0,
      "debug_info" : "415",
      "top" : "415",
      "type" : "elementwise",
      "name" : "415",
      "beta" : 0
    },
    {
      "pad_r" : 0,
      "fused_relu" : 0,
      "fused_tanh" : 0,
      "debug_info" : "input.79",
      "pad_fill_mode" : 0,
      "pad_b" : 0,
      "pad_l" : 0,
      "top" : "input.79",
      "K" : 128,
      "blob_biases" : 129,
      "name" : "input.79",
      "has_batch_norm" : 0,
      "type" : "convolution",
      "n_groups" : 1,
      "pad_t" : 0,
      "has_biases" : 1,
      "C" : 64,
      "bottom" : "415",
      "weights" : {

      },
      "Nx" : 1,
      "pad_mode" : 0,
      "pad_value" : 0,
      "Ny" : 1,
      "n_parallel" : 1,
      "blob_weights_f16" : 131
    },
    {
      "bottom" : "input.79",
      "weights" : {

      },
      "mode" : 3,
      "debug_info" : "424__silu_sigmoid__",
      "top" : "424__silu_sigmoid__",
      "type" : "activation",
      "name" : "424__silu_sigmoid__"
    },
    {
      "bottom" : "input.79,424__silu_sigmoid__",
      "alpha" : 1,
      "operation" : 1,
      "weights" : {

      },
      "fused_relu" : 0,
      "debug_info" : "424",
      "top" : "424",
      "type" : "elementwise",
      "name" : "424",
      "beta" : 0
    },
    {
      "bottom" : "input.3,424",
      "alpha" : 1,
      "operation" : 0,
      "weights" : {

      },
      "fused_relu" : 0,
      "debug_info" : "425",
      "top" : "425",
      "type" : "elementwise",
      "name" : "425",
      "beta" : 0
    },
    {
      "pad_r" : 0,
      "fused_relu" : 0,
      "fused_tanh" : 0,
      "debug_info" : "input.71",
      "pad_fill_mode" : 0,
      "pad_b" : 0,
      "pad_l" : 0,
      "top" : "input.71",
      "K" : 128,
      "blob_biases" : 133,
      "name" : "input.71",
      "has_batch_norm" : 0,
      "type" : "convolution",
      "n_groups" : 1,
      "pad_t" : 0,
      "has_biases" : 1,
      "C" : 64,
      "bottom" : "313",
      "weights" : {

      },
      "Nx" : 1,
      "pad_mode" : 0,
      "pad_value" : 0,
      "Ny" : 1,
      "n_parallel" : 1,
      "blob_weights_f16" : 135
    },
    {
      "bottom" : "input.71",
      "weights" : {

      },
      "mode" : 3,
      "debug_info" : "434__silu_sigmoid__",
      "top" : "434__silu_sigmoid__",
      "type" : "activation",
      "name" : "434__silu_sigmoid__"
    },
    {
      "bottom" : "input.71,434__silu_sigmoid__",
      "alpha" : 1,
      "operation" : 1,
      "weights" : {

      },
      "fused_relu" : 0,
      "debug_info" : "434",
      "top" : "434",
      "type" : "elementwise",
      "name" : "434",
      "beta" : 0
    },
    {
      "weights" : {

      },
      "debug_info" : "input.83",
      "top" : "input.83",
      "type" : "concat",
      "name" : "input.83",
      "bottom" : "425,434"
    },
    {
      "pad_r" : 0,
      "fused_relu" : 0,
      "fused_tanh" : 0,
      "debug_info" : "input0.6",
      "pad_fill_mode" : 0,
      "pad_b" : 0,
      "pad_l" : 0,
      "top" : "input0.6",
      "K" : 128,
      "blob_biases" : 137,
      "name" : "input0.6",
      "has_batch_norm" : 0,
      "type" : "convolution",
      "n_groups" : 1,
      "pad_t" : 0,
      "has_biases" : 1,
      "C" : 128,
      "bottom" : "input.83",
      "weights" : {

      },
      "Nx" : 1,
      "pad_mode" : 0,
      "pad_value" : 0,
      "Ny" : 1,
      "n_parallel" : 1,
      "blob_weights_f16" : 139
    },
    {
      "bottom" : "input0.6",
      "weights" : {

      },
      "mode" : 3,
      "debug_info" : "445__silu_sigmoid__",
      "top" : "445__silu_sigmoid__",
      "type" : "activation",
      "name" : "445__silu_sigmoid__"
    },
    {
      "bottom" : "input0.6,445__silu_sigmoid__",
      "alpha" : 1,
      "operation" : 1,
      "weights" : {

      },
      "fused_relu" : 0,
      "debug_info" : "445",
      "top" : "445",
      "type" : "elementwise",
      "name" : "445",
      "beta" : 0
    },
    {
      "pad_r" : 0,
      "fused_relu" : 0,
      "fused_tanh" : 0,
      "debug_info" : "input.75",
      "pad_fill_mode" : 0,
      "pad_b" : 0,
      "pad_l" : 0,
      "top" : "input.75",
      "K" : 128,
      "blob_biases" : 141,
      "name" : "input.75",
      "has_batch_norm" : 0,
      "type" : "convolution",
      "n_groups" : 1,
      "pad_t" : 0,
      "has_biases" : 1,
      "C" : 256,
      "bottom" : "445",
      "weights" : {

      },
      "Nx" : 1,
      "pad_mode" : 0,
      "pad_value" : 0,
      "Ny" : 1,
      "n_parallel" : 1,
      "blob_weights_f16" : 143
    },
    {
      "bottom" : "input.75",
      "weights" : {

      },
      "mode" : 3,
      "debug_info" : "457__silu_sigmoid__",
      "top" : "457__silu_sigmoid__",
      "type" : "activation",
      "name" : "457__silu_sigmoid__"
    },
    {
      "bottom" : "input.75,457__silu_sigmoid__",
      "alpha" : 1,
      "operation" : 1,
      "weights" : {

      },
      "fused_relu" : 0,
      "debug_info" : "457",
      "top" : "457",
      "type" : "elementwise",
      "name" : "457",
      "beta" : 0
    },
    {
      "pad_r" : 1,
      "fused_relu" : 0,
      "fused_tanh" : 0,
      "debug_info" : "input.77",
      "pad_fill_mode" : 0,
      "pad_b" : 1,
      "pad_l" : 1,
      "top" : "input.77",
      "K" : 256,
      "blob_biases" : 145,
      "stride_x" : 2,
      "name" : "input.77",
      "has_batch_norm" : 0,
      "type" : "convolution",
      "n_groups" : 256,
      "pad_t" : 1,
      "stride_y" : 2,
      "has_biases" : 1,
      "C" : 256,
      "bottom" : "457",
      "weights" : {

      },
      "Nx" : 3,
      "pad_mode" : 0,
      "pad_value" : 0,
      "Ny" : 3,
      "n_parallel" : 1,
      "blob_weights_f16" : 147
    },
    {
      "bottom" : "input.77",
      "weights" : {

      },
      "mode" : 3,
      "debug_info" : "466__silu_sigmoid__",
      "top" : "466__silu_sigmoid__",
      "type" : "activation",
      "name" : "466__silu_sigmoid__"
    },
    {
      "bottom" : "input.77,466__silu_sigmoid__",
      "alpha" : 1,
      "operation" : 1,
      "weights" : {

      },
      "fused_relu" : 0,
      "debug_info" : "466",
      "top" : "466",
      "type" : "elementwise",
      "name" : "466",
      "beta" : 0
    },
    {
      "pad_r" : 0,
      "fused_relu" : 0,
      "fused_tanh" : 0,
      "debug_info" : "input.81",
      "pad_fill_mode" : 0,
      "pad_b" : 0,
      "pad_l" : 0,
      "top" : "input.81",
      "K" : 256,
      "blob_biases" : 149,
      "name" : "input.81",
      "has_batch_norm" : 0,
      "type" : "convolution",
      "n_groups" : 1,
      "pad_t" : 0,
      "has_biases" : 1,
      "C" : 256,
      "bottom" : "466",
      "weights" : {

      },
      "Nx" : 1,
      "pad_mode" : 0,
      "pad_value" : 0,
      "Ny" : 1,
      "n_parallel" : 1,
      "blob_weights_f16" : 151
    },
    {
      "bottom" : "input.81",
      "weights" : {

      },
      "mode" : 3,
      "debug_info" : "475__silu_sigmoid__",
      "top" : "475__silu_sigmoid__",
      "type" : "activation",
      "name" : "475__silu_sigmoid__"
    },
    {
      "bottom" : "input.81,475__silu_sigmoid__",
      "alpha" : 1,
      "operation" : 1,
      "weights" : {

      },
      "fused_relu" : 0,
      "debug_info" : "475",
      "top" : "475",
      "type" : "elementwise",
      "name" : "475",
      "beta" : 0
    },
    {
      "pad_r" : 0,
      "fused_relu" : 0,
      "fused_tanh" : 0,
      "debug_info" : "input.97",
      "pad_fill_mode" : 0,
      "pad_b" : 0,
      "pad_l" : 0,
      "top" : "input.97",
      "K" : 256,
      "blob_biases" : 153,
      "name" : "input.97",
      "has_batch_norm" : 0,
      "type" : "convolution",
      "n_groups" : 1,
      "pad_t" : 0,
      "has_biases" : 1,
      "C" : 128,
      "bottom" : "475",
      "weights" : {

      },
      "Nx" : 1,
      "pad_mode" : 0,
      "pad_value" : 0,
      "Ny" : 1,
      "n_parallel" : 1,
      "blob_weights_f16" : 155
    },
    {
      "bottom" : "input.97",
      "weights" : {

      },
      "mode" : 3,
      "debug_info" : "488__silu_sigmoid__",
      "top" : "488__silu_sigmoid__",
      "type" : "activation",
      "name" : "488__silu_sigmoid__"
    },
    {
      "bottom" : "input.97,488__silu_sigmoid__",
      "alpha" : 1,
      "operation" : 1,
      "weights" : {

      },
      "fused_relu" : 0,
      "debug_info" : "488",
      "top" : "488",
      "type" : "elementwise",
      "name" : "488",
      "beta" : 0
    },
    {
      "pad_r" : 0,
      "fused_relu" : 0,
      "fused_tanh" : 0,
      "debug_info" : "input.91",
      "pad_fill_mode" : 0,
      "pad_b" : 0,
      "pad_l" : 0,
      "top" : "input.91",
      "K" : 128,
      "blob_biases" : 157,
      "name" : "input.91",
      "has_batch_norm" : 0,
      "type" : "convolution",
      "n_groups" : 1,
      "pad_t" : 0,
      "has_biases" : 1,
      "C" : 256,
      "bottom" : "488",
      "weights" : {

      },
      "Nx" : 1,
      "pad_mode" : 0,
      "pad_value" : 0,
      "Ny" : 1,
      "n_parallel" : 1,
      "blob_weights_f16" : 159
    },
    {
      "bottom" : "input.91",
      "weights" : {

      },
      "mode" : 3,
      "debug_info" : "502__silu_sigmoid__",
      "top" : "502__silu_sigmoid__",
      "type" : "activation",
      "name" : "502__silu_sigmoid__"
    },
    {
      "bottom" : "input.91,502__silu_sigmoid__",
      "alpha" : 1,
      "operation" : 1,
      "weights" : {

      },
      "fused_relu" : 0,
      "debug_info" : "502",
      "top" : "502",
      "type" : "elementwise",
      "name" : "502",
      "beta" : 0
    },
    {
      "pad_r" : 1,
      "fused_relu" : 0,
      "fused_tanh" : 0,
      "debug_info" : "input.85",
      "pad_fill_mode" : 0,
      "pad_b" : 1,
      "pad_l" : 1,
      "top" : "input.85",
      "K" : 256,
      "blob_biases" : 161,
      "name" : "input.85",
      "has_batch_norm" : 0,
      "type" : "convolution",
      "n_groups" : 256,
      "pad_t" : 1,
      "has_biases" : 1,
      "C" : 256,
      "bottom" : "502",
      "weights" : {

      },
      "Nx" : 3,
      "pad_mode" : 0,
      "pad_value" : 0,
      "Ny" : 3,
      "n_parallel" : 1,
      "blob_weights_f16" : 163
    },
    {
      "bottom" : "input.85",
      "weights" : {

      },
      "mode" : 3,
      "debug_info" : "511__silu_sigmoid__",
      "top" : "511__silu_sigmoid__",
      "type" : "activation",
      "name" : "511__silu_sigmoid__"
    },
    {
      "bottom" : "input.85,511__silu_sigmoid__",
      "alpha" : 1,
      "operation" : 1,
      "weights" : {

      },
      "fused_relu" : 0,
      "debug_info" : "511",
      "top" : "511",
      "type" : "elementwise",
      "name" : "511",
      "beta" : 0
    },
    {
      "pad_r" : 0,
      "fused_relu" : 0,
      "fused_tanh" : 0,
      "debug_info" : "input.103",
      "pad_fill_mode" : 0,
      "pad_b" : 0,
      "pad_l" : 0,
      "top" : "input.103",
      "K" : 256,
      "blob_biases" : 165,
      "name" : "input.103",
      "has_batch_norm" : 0,
      "type" : "convolution",
      "n_groups" : 1,
      "pad_t" : 0,
      "has_biases" : 1,
      "C" : 128,
      "bottom" : "511",
      "weights" : {

      },
      "Nx" : 1,
      "pad_mode" : 0,
      "pad_value" : 0,
      "Ny" : 1,
      "n_parallel" : 1,
      "blob_weights_f16" : 167
    },
    {
      "bottom" : "input.103",
      "weights" : {

      },
      "mode" : 3,
      "debug_info" : "520__silu_sigmoid__",
      "top" : "520__silu_sigmoid__",
      "type" : "activation",
      "name" : "520__silu_sigmoid__"
    },
    {
      "bottom" : "input.103,520__silu_sigmoid__",
      "alpha" : 1,
      "operation" : 1,
      "weights" : {

      },
      "fused_relu" : 0,
      "debug_info" : "520",
      "top" : "520",
      "type" : "elementwise",
      "name" : "520",
      "beta" : 0
    },
    {
      "bottom" : "488,520",
      "alpha" : 1,
      "operation" : 0,
      "weights" : {

      },
      "fused_relu" : 0,
      "debug_info" : "521",
      "top" : "521",
      "type" : "elementwise",
      "name" : "521",
      "beta" : 0
    },
    {
      "pad_r" : 0,
      "fused_relu" : 0,
      "fused_tanh" : 0,
      "debug_info" : "input.89",
      "pad_fill_mode" : 0,
      "pad_b" : 0,
      "pad_l" : 0,
      "top" : "input.89",
      "K" : 256,
      "blob_biases" : 169,
      "name" : "input.89",
      "has_batch_norm" : 0,
      "type" : "convolution",
      "n_groups" : 1,
      "pad_t" : 0,
      "has_biases" : 1,
      "C" : 128,
      "bottom" : "475",
      "weights" : {

      },
      "Nx" : 1,
      "pad_mode" : 0,
      "pad_value" : 0,
      "Ny" : 1,
      "n_parallel" : 1,
      "blob_weights_f16" : 171
    },
    {
      "bottom" : "input.89",
      "weights" : {

      },
      "mode" : 3,
      "debug_info" : "530__silu_sigmoid__",
      "top" : "530__silu_sigmoid__",
      "type" : "activation",
      "name" : "530__silu_sigmoid__"
    },
    {
      "bottom" : "input.89,530__silu_sigmoid__",
      "alpha" : 1,
      "operation" : 1,
      "weights" : {

      },
      "fused_relu" : 0,
      "debug_info" : "530",
      "top" : "530",
      "type" : "elementwise",
      "name" : "530",
      "beta" : 0
    },
    {
      "weights" : {

      },
      "debug_info" : "input.87",
      "top" : "input.87",
      "type" : "concat",
      "name" : "input.87",
      "bottom" : "521,530"
    },
    {
      "pad_r" : 0,
      "fused_relu" : 0,
      "fused_tanh" : 0,
      "debug_info" : "input0.8",
      "pad_fill_mode" : 0,
      "pad_b" : 0,
      "pad_l" : 0,
      "top" : "input0.8",
      "K" : 256,
      "blob_biases" : 173,
      "name" : "input0.8",
      "has_batch_norm" : 0,
      "type" : "convolution",
      "n_groups" : 1,
      "pad_t" : 0,
      "has_biases" : 1,
      "C" : 256,
      "bottom" : "input.87",
      "weights" : {

      },
      "Nx" : 1,
      "pad_mode" : 0,
      "pad_value" : 0,
      "Ny" : 1,
      "n_parallel" : 1,
      "blob_weights_f16" : 175
    },
    {
      "bottom" : "input0.8",
      "weights" : {

      },
      "mode" : 3,
      "debug_info" : "541__silu_sigmoid__",
      "top" : "541__silu_sigmoid__",
      "type" : "activation",
      "name" : "541__silu_sigmoid__"
    },
    {
      "bottom" : "input0.8,541__silu_sigmoid__",
      "alpha" : 1,
      "operation" : 1,
      "weights" : {

      },
      "fused_relu" : 0,
      "debug_info" : "541",
      "top" : "541",
      "type" : "elementwise",
      "name" : "541",
      "beta" : 0
    },
    {
      "pad_r" : 0,
      "fused_relu" : 0,
      "fused_tanh" : 0,
      "debug_info" : "input.101",
      "pad_fill_mode" : 0,
      "pad_b" : 0,
      "pad_l" : 0,
      "top" : "input.101",
      "K" : 256,
      "blob_biases" : 177,
      "name" : "input.101",
      "has_batch_norm" : 0,
      "type" : "convolution",
      "n_groups" : 1,
      "pad_t" : 0,
      "has_biases" : 1,
      "C" : 128,
      "bottom" : "541",
      "weights" : {

      },
      "Nx" : 1,
      "pad_mode" : 0,
      "pad_value" : 0,
      "Ny" : 1,
      "n_parallel" : 1,
      "blob_weights_f16" : 179
    },
    {
      "bottom" : "input.101",
      "weights" : {

      },
      "mode" : 3,
      "debug_info" : "552__silu_sigmoid__",
      "top" : "552__silu_sigmoid__",
      "type" : "activation",
      "name" : "552__silu_sigmoid__"
    },
    {
      "bottom" : "input.101,552__silu_sigmoid__",
      "alpha" : 1,
      "operation" : 1,
      "weights" : {

      },
      "fused_relu" : 0,
      "debug_info" : "552",
      "top" : "552",
      "type" : "elementwise",
      "name" : "552",
      "beta" : 0
    },
    {
      "pad_r" : 2,
      "debug_info" : "input.107",
      "pad_fill_mode" : 0,
      "pad_b" : 2,
      "pad_l" : 2,
      "size_x" : 5,
      "top" : "input.107",
      "top_shape_style" : 0,
      "stride_x" : 1,
      "avg_or_max" : 1,
      "average_count_exclude_padding" : 1,
      "type" : "pool",
      "name" : "input.107",
      "pad_t" : 2,
      "stride_y" : 1,
      "bottom" : "552",
      "weights" : {

      },
      "pad_mode" : 0,
      "size_y" : 5,
      "pad_value" : 0
    },
    {
      "pad_r" : 2,
      "debug_info" : "input.93",
      "pad_fill_mode" : 0,
      "pad_b" : 2,
      "pad_l" : 2,
      "size_x" : 5,
      "top" : "input.93",
      "top_shape_style" : 0,
      "stride_x" : 1,
      "avg_or_max" : 1,
      "average_count_exclude_padding" : 1,
      "type" : "pool",
      "name" : "input.93",
      "pad_t" : 2,
      "stride_y" : 1,
      "bottom" : "input.107",
      "weights" : {

      },
      "pad_mode" : 0,
      "size_y" : 5,
      "pad_value" : 0
    },
    {
      "pad_r" : 2,
      "debug_info" : "567",
      "pad_fill_mode" : 0,
      "pad_b" : 2,
      "pad_l" : 2,
      "size_x" : 5,
      "top" : "567",
      "top_shape_style" : 0,
      "stride_x" : 1,
      "avg_or_max" : 1,
      "average_count_exclude_padding" : 1,
      "type" : "pool",
      "name" : "567",
      "pad_t" : 2,
      "stride_y" : 1,
      "bottom" : "input.93",
      "weights" : {

      },
      "pad_mode" : 0,
      "size_y" : 5,
      "pad_value" : 0
    },
    {
      "weights" : {

      },
      "debug_info" : "input.99",
      "top" : "input.99",
      "type" : "concat",
      "name" : "input.99",
      "bottom" : "552,input.107,input.93,567"
    },
    {
      "pad_r" : 0,
      "fused_relu" : 0,
      "fused_tanh" : 0,
      "debug_info" : "input0.10",
      "pad_fill_mode" : 0,
      "pad_b" : 0,
      "pad_l" : 0,
      "top" : "input0.10",
      "K" : 512,
      "blob_biases" : 181,
      "name" : "input0.10",
      "has_batch_norm" : 0,
      "type" : "convolution",
      "n_groups" : 1,
      "pad_t" : 0,
      "has_biases" : 1,
      "C" : 256,
      "bottom" : "input.99",
      "weights" : {

      },
      "Nx" : 1,
      "pad_mode" : 0,
      "pad_value" : 0,
      "Ny" : 1,
      "n_parallel" : 1,
      "blob_weights_f16" : 183
    },
    {
      "bottom" : "input0.10",
      "weights" : {

      },
      "mode" : 3,
      "debug_info" : "578__silu_sigmoid__",
      "top" : "578__silu_sigmoid__",
      "type" : "activation",
      "name" : "578__silu_sigmoid__"
    },
    {
      "bottom" : "input0.10,578__silu_sigmoid__",
      "alpha" : 1,
      "operation" : 1,
      "weights" : {

      },
      "fused_relu" : 0,
      "debug_info" : "578",
      "top" : "578",
      "type" : "elementwise",
      "name" : "578",
      "beta" : 0
    },
    {
      "pad_r" : 0,
      "fused_relu" : 0,
      "fused_tanh" : 0,
      "debug_info" : "input.95",
      "pad_fill_mode" : 0,
      "pad_b" : 0,
      "pad_l" : 0,
      "top" : "input.95",
      "K" : 256,
      "blob_biases" : 185,
      "name" : "input.95",
      "has_batch_norm" : 0,
      "type" : "convolution",
      "n_groups" : 1,
      "pad_t" : 0,
      "has_biases" : 1,
      "C" : 128,
      "bottom" : "578",
      "weights" : {

      },
      "Nx" : 1,
      "pad_mode" : 0,
      "pad_value" : 0,
      "Ny" : 1,
      "n_parallel" : 1,
      "blob_weights_f16" : 187
    },
    {
      "bottom" : "input.95",
      "weights" : {

      },
      "mode" : 3,
      "debug_info" : "587__silu_sigmoid__",
      "top" : "587__silu_sigmoid__",
      "type" : "activation",
      "name" : "587__silu_sigmoid__"
    },
    {
      "bottom" : "input.95,587__silu_sigmoid__",
      "alpha" : 1,
      "operation" : 1,
      "weights" : {

      },
      "fused_relu" : 0,
      "debug_info" : "587",
      "top" : "587",
      "type" : "elementwise",
      "name" : "587",
      "beta" : 0
    },
    {
      "top" : "589",
      "use_fractional_scale_factors" : false,
      "weights" : {

      },
      "fractional_scaling_factor_y" : 1,
      "type" : "upsample",
      "scaling_factor_x" : 2,
      "mode" : 0,
      "align_corners" : 0,
      "bottom" : "587",
      "debug_info" : "589",
      "fractional_scaling_factor_x" : 1,
      "is_legacy_mode" : 1,
      "name" : "589",
      "scaling_factor_y" : 2
    },
    {
      "weights" : {

      },
      "debug_info" : "input.105",
      "top" : "input.105",
      "type" : "concat",
      "name" : "input.105",
      "bottom" : "589,445"
    },
    {
      "pad_r" : 0,
      "fused_relu" : 0,
      "fused_tanh" : 0,
      "debug_info" : "input.113",
      "pad_fill_mode" : 0,
      "pad_b" : 0,
      "pad_l" : 0,
      "top" : "input.113",
      "K" : 256,
      "blob_biases" : 189,
      "name" : "input.113",
      "has_batch_norm" : 0,
      "type" : "convolution",
      "n_groups" : 1,
      "pad_t" : 0,
      "has_biases" : 1,
      "C" : 64,
      "bottom" : "input.105",
      "weights" : {

      },
      "Nx" : 1,
      "pad_mode" : 0,
      "pad_value" : 0,
      "Ny" : 1,
      "n_parallel" : 1,
      "blob_weights_f16" : 191
    },
    {
      "bottom" : "input.113",
      "weights" : {

      },
      "mode" : 3,
      "debug_info" : "604__silu_sigmoid__",
      "top" : "604__silu_sigmoid__",
      "type" : "activation",
      "name" : "604__silu_sigmoid__"
    },
    {
      "bottom" : "input.113,604__silu_sigmoid__",
      "alpha" : 1,
      "operation" : 1,
      "weights" : {

      },
      "fused_relu" : 0,
      "debug_info" : "604",
      "top" : "604",
      "type" : "elementwise",
      "name" : "604",
      "beta" : 0
    },
    {
      "pad_r" : 0,
      "fused_relu" : 0,
      "fused_tanh" : 0,
      "debug_info" : "input.115",
      "pad_fill_mode" : 0,
      "pad_b" : 0,
      "pad_l" : 0,
      "top" : "input.115",
      "K" : 64,
      "blob_biases" : 193,
      "name" : "input.115",
      "has_batch_norm" : 0,
      "type" : "convolution",
      "n_groups" : 1,
      "pad_t" : 0,
      "has_biases" : 1,
      "C" : 128,
      "bottom" : "604",
      "weights" : {

      },
      "Nx" : 1,
      "pad_mode" : 0,
      "pad_value" : 0,
      "Ny" : 1,
      "n_parallel" : 1,
      "blob_weights_f16" : 195
    },
    {
      "bottom" : "input.115",
      "weights" : {

      },
      "mode" : 3,
      "debug_info" : "618__silu_sigmoid__",
      "top" : "618__silu_sigmoid__",
      "type" : "activation",
      "name" : "618__silu_sigmoid__"
    },
    {
      "bottom" : "input.115,618__silu_sigmoid__",
      "alpha" : 1,
      "operation" : 1,
      "weights" : {

      },
      "fused_relu" : 0,
      "debug_info" : "618",
      "top" : "618",
      "type" : "elementwise",
      "name" : "618",
      "beta" : 0
    },
    {
      "pad_r" : 1,
      "fused_relu" : 0,
      "fused_tanh" : 0,
      "debug_info" : "input.117",
      "pad_fill_mode" : 0,
      "pad_b" : 1,
      "pad_l" : 1,
      "top" : "input.117",
      "K" : 128,
      "blob_biases" : 197,
      "name" : "input.117",
      "has_batch_norm" : 0,
      "type" : "convolution",
      "n_groups" : 128,
      "pad_t" : 1,
      "has_biases" : 1,
      "C" : 128,
      "bottom" : "618",
      "weights" : {

      },
      "Nx" : 3,
      "pad_mode" : 0,
      "pad_value" : 0,
      "Ny" : 3,
      "n_parallel" : 1,
      "blob_weights_f16" : 199
    },
    {
      "bottom" : "input.117",
      "weights" : {

      },
      "mode" : 3,
      "debug_info" : "627__silu_sigmoid__",
      "top" : "627__silu_sigmoid__",
      "type" : "activation",
      "name" : "627__silu_sigmoid__"
    },
    {
      "bottom" : "input.117,627__silu_sigmoid__",
      "alpha" : 1,
      "operation" : 1,
      "weights" : {

      },
      "fused_relu" : 0,
      "debug_info" : "627",
      "top" : "627",
      "type" : "elementwise",
      "name" : "627",
      "beta" : 0
    },
    {
      "pad_r" : 0,
      "fused_relu" : 0,
      "fused_tanh" : 0,
      "debug_info" : "input.119",
      "pad_fill_mode" : 0,
      "pad_b" : 0,
      "pad_l" : 0,
      "top" : "input.119",
      "K" : 128,
      "blob_biases" : 201,
      "name" : "input.119",
      "has_batch_norm" : 0,
      "type" : "convolution",
      "n_groups" : 1,
      "pad_t" : 0,
      "has_biases" : 1,
      "C" : 64,
      "bottom" : "627",
      "weights" : {

      },
      "Nx" : 1,
      "pad_mode" : 0,
      "pad_value" : 0,
      "Ny" : 1,
      "n_parallel" : 1,
      "blob_weights_f16" : 203
    },
    {
      "bottom" : "input.119",
      "weights" : {

      },
      "mode" : 3,
      "debug_info" : "636__silu_sigmoid__",
      "top" : "636__silu_sigmoid__",
      "type" : "activation",
      "name" : "636__silu_sigmoid__"
    },
    {
      "bottom" : "input.119,636__silu_sigmoid__",
      "alpha" : 1,
      "operation" : 1,
      "weights" : {

      },
      "fused_relu" : 0,
      "debug_info" : "636",
      "top" : "636",
      "type" : "elementwise",
      "name" : "636",
      "beta" : 0
    },
    {
      "pad_r" : 0,
      "fused_relu" : 0,
      "fused_tanh" : 0,
      "debug_info" : "input.109",
      "pad_fill_mode" : 0,
      "pad_b" : 0,
      "pad_l" : 0,
      "top" : "input.109",
      "K" : 256,
      "blob_biases" : 205,
      "name" : "input.109",
      "has_batch_norm" : 0,
      "type" : "convolution",
      "n_groups" : 1,
      "pad_t" : 0,
      "has_biases" : 1,
      "C" : 64,
      "bottom" : "input.105",
      "weights" : {

      },
      "Nx" : 1,
      "pad_mode" : 0,
      "pad_value" : 0,
      "Ny" : 1,
      "n_parallel" : 1,
      "blob_weights_f16" : 207
    },
    {
      "bottom" : "input.109",
      "weights" : {

      },
      "mode" : 3,
      "debug_info" : "645__silu_sigmoid__",
      "top" : "645__silu_sigmoid__",
      "type" : "activation",
      "name" : "645__silu_sigmoid__"
    },
    {
      "bottom" : "input.109,645__silu_sigmoid__",
      "alpha" : 1,
      "operation" : 1,
      "weights" : {

      },
      "fused_relu" : 0,
      "debug_info" : "645",
      "top" : "645",
      "type" : "elementwise",
      "name" : "645",
      "beta" : 0
    },
    {
      "weights" : {

      },
      "debug_info" : "input.123",
      "top" : "input.123",
      "type" : "concat",
      "name" : "input.123",
      "bottom" : "636,645"
    },
    {
      "pad_r" : 0,
      "fused_relu" : 0,
      "fused_tanh" : 0,
      "debug_info" : "input0.12",
      "pad_fill_mode" : 0,
      "pad_b" : 0,
      "pad_l" : 0,
      "top" : "input0.12",
      "K" : 128,
      "blob_biases" : 209,
      "name" : "input0.12",
      "has_batch_norm" : 0,
      "type" : "convolution",
      "n_groups" : 1,
      "pad_t" : 0,
      "has_biases" : 1,
      "C" : 128,
      "bottom" : "input.123",
      "weights" : {

      },
      "Nx" : 1,
      "pad_mode" : 0,
      "pad_value" : 0,
      "Ny" : 1,
      "n_parallel" : 1,
      "blob_weights_f16" : 211
    },
    {
      "bottom" : "input0.12",
      "weights" : {

      },
      "mode" : 3,
      "debug_info" : "656__silu_sigmoid__",
      "top" : "656__silu_sigmoid__",
      "type" : "activation",
      "name" : "656__silu_sigmoid__"
    },
    {
      "bottom" : "input0.12,656__silu_sigmoid__",
      "alpha" : 1,
      "operation" : 1,
      "weights" : {

      },
      "fused_relu" : 0,
      "debug_info" : "656",
      "top" : "656",
      "type" : "elementwise",
      "name" : "656",
      "beta" : 0
    },
    {
      "pad_r" : 0,
      "fused_relu" : 0,
      "fused_tanh" : 0,
      "debug_info" : "input.111",
      "pad_fill_mode" : 0,
      "pad_b" : 0,
      "pad_l" : 0,
      "top" : "input.111",
      "K" : 128,
      "blob_biases" : 213,
      "name" : "input.111",
      "has_batch_norm" : 0,
      "type" : "convolution",
      "n_groups" : 1,
      "pad_t" : 0,
      "has_biases" : 1,
      "C" : 64,
      "bottom" : "656",
      "weights" : {

      },
      "Nx" : 1,
      "pad_mode" : 0,
      "pad_value" : 0,
      "Ny" : 1,
      "n_parallel" : 1,
      "blob_weights_f16" : 215
    },
    {
      "bottom" : "input.111",
      "weights" : {

      },
      "mode" : 3,
      "debug_info" : "665__silu_sigmoid__",
      "top" : "665__silu_sigmoid__",
      "type" : "activation",
      "name" : "665__silu_sigmoid__"
    },
    {
      "bottom" : "input.111,665__silu_sigmoid__",
      "alpha" : 1,
      "operation" : 1,
      "weights" : {

      },
      "fused_relu" : 0,
      "debug_info" : "665",
      "top" : "665",
      "type" : "elementwise",
      "name" : "665",
      "beta" : 0
    },
    {
      "top" : "667",
      "use_fractional_scale_factors" : false,
      "weights" : {

      },
      "fractional_scaling_factor_y" : 1,
      "type" : "upsample",
      "scaling_factor_x" : 2,
      "mode" : 0,
      "align_corners" : 0,
      "bottom" : "665",
      "debug_info" : "667",
      "fractional_scaling_factor_x" : 1,
      "is_legacy_mode" : 1,
      "name" : "667",
      "scaling_factor_y" : 2
    },
    {
      "weights" : {

      },
      "debug_info" : "input.121",
      "top" : "input.121",
      "type" : "concat",
      "name" : "input.121",
      "bottom" : "667,283"
    },
    {
      "pad_r" : 0,
      "fused_relu" : 0,
      "fused_tanh" : 0,
      "debug_info" : "input.133",
      "pad_fill_mode" : 0,
      "pad_b" : 0,
      "pad_l" : 0,
      "top" : "input.133",
      "K" : 128,
      "blob_biases" : 217,
      "name" : "input.133",
      "has_batch_norm" : 0,
      "type" : "convolution",
      "n_groups" : 1,
      "pad_t" : 0,
      "has_biases" : 1,
      "C" : 32,
      "bottom" : "input.121",
      "weights" : {

      },
      "Nx" : 1,
      "pad_mode" : 0,
      "pad_value" : 0,
      "Ny" : 1,
      "n_parallel" : 1,
      "blob_weights_f16" : 219
    },
    {
      "bottom" : "input.133",
      "weights" : {

      },
      "mode" : 3,
      "debug_info" : "682__silu_sigmoid__",
      "top" : "682__silu_sigmoid__",
      "type" : "activation",
      "name" : "682__silu_sigmoid__"
    },
    {
      "bottom" : "input.133,682__silu_sigmoid__",
      "alpha" : 1,
      "operation" : 1,
      "weights" : {

      },
      "fused_relu" : 0,
      "debug_info" : "682",
      "top" : "682",
      "type" : "elementwise",
      "name" : "682",
      "beta" : 0
    },
    {
      "pad_r" : 0,
      "fused_relu" : 0,
      "fused_tanh" : 0,
      "debug_info" : "input.125",
      "pad_fill_mode" : 0,
      "pad_b" : 0,
      "pad_l" : 0,
      "top" : "input.125",
      "K" : 32,
      "blob_biases" : 221,
      "name" : "input.125",
      "has_batch_norm" : 0,
      "type" : "convolution",
      "n_groups" : 1,
      "pad_t" : 0,
      "has_biases" : 1,
      "C" : 64,
      "bottom" : "682",
      "weights" : {

      },
      "Nx" : 1,
      "pad_mode" : 0,
      "pad_value" : 0,
      "Ny" : 1,
      "n_parallel" : 1,
      "blob_weights_f16" : 223
    },
    {
      "bottom" : "input.125",
      "weights" : {

      },
      "mode" : 3,
      "debug_info" : "696__silu_sigmoid__",
      "top" : "696__silu_sigmoid__",
      "type" : "activation",
      "name" : "696__silu_sigmoid__"
    },
    {
      "bottom" : "input.125,696__silu_sigmoid__",
      "alpha" : 1,
      "operation" : 1,
      "weights" : {

      },
      "fused_relu" : 0,
      "debug_info" : "696",
      "top" : "696",
      "type" : "elementwise",
      "name" : "696",
      "beta" : 0
    },
    {
      "pad_r" : 1,
      "fused_relu" : 0,
      "fused_tanh" : 0,
      "debug_info" : "input.127",
      "pad_fill_mode" : 0,
      "pad_b" : 1,
      "pad_l" : 1,
      "top" : "input.127",
      "K" : 64,
      "blob_biases" : 225,
      "name" : "input.127",
      "has_batch_norm" : 0,
      "type" : "convolution",
      "n_groups" : 64,
      "pad_t" : 1,
      "has_biases" : 1,
      "C" : 64,
      "bottom" : "696",
      "weights" : {

      },
      "Nx" : 3,
      "pad_mode" : 0,
      "pad_value" : 0,
      "Ny" : 3,
      "n_parallel" : 1,
      "blob_weights_f16" : 227
    },
    {
      "bottom" : "input.127",
      "weights" : {

      },
      "mode" : 3,
      "debug_info" : "705__silu_sigmoid__",
      "top" : "705__silu_sigmoid__",
      "type" : "activation",
      "name" : "705__silu_sigmoid__"
    },
    {
      "bottom" : "input.127,705__silu_sigmoid__",
      "alpha" : 1,
      "operation" : 1,
      "weights" : {

      },
      "fused_relu" : 0,
      "debug_info" : "705",
      "top" : "705",
      "type" : "elementwise",
      "name" : "705",
      "beta" : 0
    },
    {
      "pad_r" : 0,
      "fused_relu" : 0,
      "fused_tanh" : 0,
      "debug_info" : "input.139",
      "pad_fill_mode" : 0,
      "pad_b" : 0,
      "pad_l" : 0,
      "top" : "input.139",
      "K" : 64,
      "blob_biases" : 229,
      "name" : "input.139",
      "has_batch_norm" : 0,
      "type" : "convolution",
      "n_groups" : 1,
      "pad_t" : 0,
      "has_biases" : 1,
      "C" : 32,
      "bottom" : "705",
      "weights" : {

      },
      "Nx" : 1,
      "pad_mode" : 0,
      "pad_value" : 0,
      "Ny" : 1,
      "n_parallel" : 1,
      "blob_weights_f16" : 231
    },
    {
      "bottom" : "input.139",
      "weights" : {

      },
      "mode" : 3,
      "debug_info" : "714__silu_sigmoid__",
      "top" : "714__silu_sigmoid__",
      "type" : "activation",
      "name" : "714__silu_sigmoid__"
    },
    {
      "bottom" : "input.139,714__silu_sigmoid__",
      "alpha" : 1,
      "operation" : 1,
      "weights" : {

      },
      "fused_relu" : 0,
      "debug_info" : "714",
      "top" : "714",
      "type" : "elementwise",
      "name" : "714",
      "beta" : 0
    },
    {
      "pad_r" : 0,
      "fused_relu" : 0,
      "fused_tanh" : 0,
      "debug_info" : "input.129",
      "pad_fill_mode" : 0,
      "pad_b" : 0,
      "pad_l" : 0,
      "top" : "input.129",
      "K" : 128,
      "blob_biases" : 233,
      "name" : "input.129",
      "has_batch_norm" : 0,
      "type" : "convolution",
      "n_groups" : 1,
      "pad_t" : 0,
      "has_biases" : 1,
      "C" : 32,
      "bottom" : "input.121",
      "weights" : {

      },
      "Nx" : 1,
      "pad_mode" : 0,
      "pad_value" : 0,
      "Ny" : 1,
      "n_parallel" : 1,
      "blob_weights_f16" : 235
    },
    {
      "bottom" : "input.129",
      "weights" : {

      },
      "mode" : 3,
      "debug_info" : "723__silu_sigmoid__",
      "top" : "723__silu_sigmoid__",
      "type" : "activation",
      "name" : "723__silu_sigmoid__"
    },
    {
      "bottom" : "input.129,723__silu_sigmoid__",
      "alpha" : 1,
      "operation" : 1,
      "weights" : {

      },
      "fused_relu" : 0,
      "debug_info" : "723",
      "top" : "723",
      "type" : "elementwise",
      "name" : "723",
      "beta" : 0
    },
    {
      "weights" : {

      },
      "debug_info" : "input.143",
      "top" : "input.143",
      "type" : "concat",
      "name" : "input.143",
      "bottom" : "714,723"
    },
    {
      "pad_r" : 0,
      "fused_relu" : 0,
      "fused_tanh" : 0,
      "debug_info" : "input0.14",
      "pad_fill_mode" : 0,
      "pad_b" : 0,
      "pad_l" : 0,
      "top" : "input0.14",
      "K" : 64,
      "blob_biases" : 237,
      "name" : "input0.14",
      "has_batch_norm" : 0,
      "type" : "convolution",
      "n_groups" : 1,
      "pad_t" : 0,
      "has_biases" : 1,
      "C" : 64,
      "bottom" : "input.143",
      "weights" : {

      },
      "Nx" : 1,
      "pad_mode" : 0,
      "pad_value" : 0,
      "Ny" : 1,
      "n_parallel" : 1,
      "blob_weights_f16" : 239
    },
    {
      "bottom" : "input0.14",
      "weights" : {

      },
      "mode" : 3,
      "debug_info" : "734__silu_sigmoid__",
      "top" : "734__silu_sigmoid__",
      "type" : "activation",
      "name" : "734__silu_sigmoid__"
    },
    {
      "bottom" : "input0.14,734__silu_sigmoid__",
      "alpha" : 1,
      "operation" : 1,
      "weights" : {

      },
      "fused_relu" : 0,
      "debug_info" : "734",
      "top" : "734",
      "type" : "elementwise",
      "name" : "734",
      "beta" : 0
    },
    {
      "pad_r" : 0,
      "fused_relu" : 0,
      "fused_tanh" : 0,
      "debug_info" : "input.135",
      "pad_fill_mode" : 0,
      "pad_b" : 0,
      "pad_l" : 0,
      "top" : "input.135",
      "K" : 64,
      "blob_biases" : 241,
      "name" : "input.135",
      "has_batch_norm" : 0,
      "type" : "convolution",
      "n_groups" : 1,
      "pad_t" : 0,
      "has_biases" : 1,
      "C" : 128,
      "bottom" : "734",
      "weights" : {

      },
      "Nx" : 1,
      "pad_mode" : 0,
      "pad_value" : 0,
      "Ny" : 1,
      "n_parallel" : 1,
      "blob_weights_f16" : 243
    },
    {
      "bottom" : "input.135",
      "weights" : {

      },
      "mode" : 3,
      "debug_info" : "746__silu_sigmoid__",
      "top" : "746__silu_sigmoid__",
      "type" : "activation",
      "name" : "746__silu_sigmoid__"
    },
    {
      "bottom" : "input.135,746__silu_sigmoid__",
      "alpha" : 1,
      "operation" : 1,
      "weights" : {

      },
      "fused_relu" : 0,
      "debug_info" : "746",
      "top" : "746",
      "type" : "elementwise",
      "name" : "746",
      "beta" : 0
    },
    {
      "pad_r" : 1,
      "fused_relu" : 0,
      "fused_tanh" : 0,
      "debug_info" : "input.137",
      "pad_fill_mode" : 0,
      "pad_b" : 1,
      "pad_l" : 1,
      "top" : "input.137",
      "K" : 128,
      "blob_biases" : 245,
      "stride_x" : 2,
      "name" : "input.137",
      "has_batch_norm" : 0,
      "type" : "convolution",
      "n_groups" : 128,
      "pad_t" : 1,
      "stride_y" : 2,
      "has_biases" : 1,
      "C" : 128,
      "bottom" : "746",
      "weights" : {

      },
      "Nx" : 3,
      "pad_mode" : 0,
      "pad_value" : 0,
      "Ny" : 3,
      "n_parallel" : 1,
      "blob_weights_f16" : 247
    },
    {
      "bottom" : "input.137",
      "weights" : {

      },
      "mode" : 3,
      "debug_info" : "755__silu_sigmoid__",
      "top" : "755__silu_sigmoid__",
      "type" : "activation",
      "name" : "755__silu_sigmoid__"
    },
    {
      "bottom" : "input.137,755__silu_sigmoid__",
      "alpha" : 1,
      "operation" : 1,
      "weights" : {

      },
      "fused_relu" : 0,
      "debug_info" : "755",
      "top" : "755",
      "type" : "elementwise",
      "name" : "755",
      "beta" : 0
    },
    {
      "pad_r" : 0,
      "fused_relu" : 0,
      "fused_tanh" : 0,
      "debug_info" : "input.131",
      "pad_fill_mode" : 0,
      "pad_b" : 0,
      "pad_l" : 0,
      "top" : "input.131",
      "K" : 128,
      "blob_biases" : 249,
      "name" : "input.131",
      "has_batch_norm" : 0,
      "type" : "convolution",
      "n_groups" : 1,
      "pad_t" : 0,
      "has_biases" : 1,
      "C" : 64,
      "bottom" : "755",
      "weights" : {

      },
      "Nx" : 1,
      "pad_mode" : 0,
      "pad_value" : 0,
      "Ny" : 1,
      "n_parallel" : 1,
      "blob_weights_f16" : 251
    },
    {
      "bottom" : "input.131",
      "weights" : {

      },
      "mode" : 3,
      "debug_info" : "764__silu_sigmoid__",
      "top" : "764__silu_sigmoid__",
      "type" : "activation",
      "name" : "764__silu_sigmoid__"
    },
    {
      "bottom" : "input.131,764__silu_sigmoid__",
      "alpha" : 1,
      "operation" : 1,
      "weights" : {

      },
      "fused_relu" : 0,
      "debug_info" : "764",
      "top" : "764",
      "type" : "elementwise",
      "name" : "764",
      "beta" : 0
    },
    {
      "weights" : {

      },
      "debug_info" : "input.141",
      "top" : "input.141",
      "type" : "concat",
      "name" : "input.141",
      "bottom" : "764,665"
    },
    {
      "pad_r" : 0,
      "fused_relu" : 0,
      "fused_tanh" : 0,
      "debug_info" : "input.153",
      "pad_fill_mode" : 0,
      "pad_b" : 0,
      "pad_l" : 0,
      "top" : "input.153",
      "K" : 128,
      "blob_biases" : 253,
      "name" : "input.153",
      "has_batch_norm" : 0,
      "type" : "convolution",
      "n_groups" : 1,
      "pad_t" : 0,
      "has_biases" : 1,
      "C" : 64,
      "bottom" : "input.141",
      "weights" : {

      },
      "Nx" : 1,
      "pad_mode" : 0,
      "pad_value" : 0,
      "Ny" : 1,
      "n_parallel" : 1,
      "blob_weights_f16" : 255
    },
    {
      "bottom" : "input.153",
      "weights" : {

      },
      "mode" : 3,
      "debug_info" : "779__silu_sigmoid__",
      "top" : "779__silu_sigmoid__",
      "type" : "activation",
      "name" : "779__silu_sigmoid__"
    },
    {
      "bottom" : "input.153,779__silu_sigmoid__",
      "alpha" : 1,
      "operation" : 1,
      "weights" : {

      },
      "fused_relu" : 0,
      "debug_info" : "779",
      "top" : "779",
      "type" : "elementwise",
      "name" : "779",
      "beta" : 0
    },
    {
      "pad_r" : 0,
      "fused_relu" : 0,
      "fused_tanh" : 0,
      "debug_info" : "input.145",
      "pad_fill_mode" : 0,
      "pad_b" : 0,
      "pad_l" : 0,
      "top" : "input.145",
      "K" : 64,
      "blob_biases" : 257,
      "name" : "input.145",
      "has_batch_norm" : 0,
      "type" : "convolution",
      "n_groups" : 1,
      "pad_t" : 0,
      "has_biases" : 1,
      "C" : 128,
      "bottom" : "779",
      "weights" : {

      },
      "Nx" : 1,
      "pad_mode" : 0,
      "pad_value" : 0,
      "Ny" : 1,
      "n_parallel" : 1,
      "blob_weights_f16" : 259
    },
    {
      "bottom" : "input.145",
      "weights" : {

      },
      "mode" : 3,
      "debug_info" : "793__silu_sigmoid__",
      "top" : "793__silu_sigmoid__",
      "type" : "activation",
      "name" : "793__silu_sigmoid__"
    },
    {
      "bottom" : "input.145,793__silu_sigmoid__",
      "alpha" : 1,
      "operation" : 1,
      "weights" : {

      },
      "fused_relu" : 0,
      "debug_info" : "793",
      "top" : "793",
      "type" : "elementwise",
      "name" : "793",
      "beta" : 0
    },
    {
      "pad_r" : 1,
      "fused_relu" : 0,
      "fused_tanh" : 0,
      "debug_info" : "input.147",
      "pad_fill_mode" : 0,
      "pad_b" : 1,
      "pad_l" : 1,
      "top" : "input.147",
      "K" : 128,
      "blob_biases" : 261,
      "name" : "input.147",
      "has_batch_norm" : 0,
      "type" : "convolution",
      "n_groups" : 128,
      "pad_t" : 1,
      "has_biases" : 1,
      "C" : 128,
      "bottom" : "793",
      "weights" : {

      },
      "Nx" : 3,
      "pad_mode" : 0,
      "pad_value" : 0,
      "Ny" : 3,
      "n_parallel" : 1,
      "blob_weights_f16" : 263
    },
    {
      "bottom" : "input.147",
      "weights" : {

      },
      "mode" : 3,
      "debug_info" : "802__silu_sigmoid__",
      "top" : "802__silu_sigmoid__",
      "type" : "activation",
      "name" : "802__silu_sigmoid__"
    },
    {
      "bottom" : "input.147,802__silu_sigmoid__",
      "alpha" : 1,
      "operation" : 1,
      "weights" : {

      },
      "fused_relu" : 0,
      "debug_info" : "802",
      "top" : "802",
      "type" : "elementwise",
      "name" : "802",
      "beta" : 0
    },
    {
      "pad_r" : 0,
      "fused_relu" : 0,
      "fused_tanh" : 0,
      "debug_info" : "input.159",
      "pad_fill_mode" : 0,
      "pad_b" : 0,
      "pad_l" : 0,
      "top" : "input.159",
      "K" : 128,
      "blob_biases" : 265,
      "name" : "input.159",
      "has_batch_norm" : 0,
      "type" : "convolution",
      "n_groups" : 1,
      "pad_t" : 0,
      "has_biases" : 1,
      "C" : 64,
      "bottom" : "802",
      "weights" : {

      },
      "Nx" : 1,
      "pad_mode" : 0,
      "pad_value" : 0,
      "Ny" : 1,
      "n_parallel" : 1,
      "blob_weights_f16" : 267
    },
    {
      "bottom" : "input.159",
      "weights" : {

      },
      "mode" : 3,
      "debug_info" : "811__silu_sigmoid__",
      "top" : "811__silu_sigmoid__",
      "type" : "activation",
      "name" : "811__silu_sigmoid__"
    },
    {
      "bottom" : "input.159,811__silu_sigmoid__",
      "alpha" : 1,
      "operation" : 1,
      "weights" : {

      },
      "fused_relu" : 0,
      "debug_info" : "811",
      "top" : "811",
      "type" : "elementwise",
      "name" : "811",
      "beta" : 0
    },
    {
      "pad_r" : 0,
      "fused_relu" : 0,
      "fused_tanh" : 0,
      "debug_info" : "input.149",
      "pad_fill_mode" : 0,
      "pad_b" : 0,
      "pad_l" : 0,
      "top" : "input.149",
      "K" : 128,
      "blob_biases" : 269,
      "name" : "input.149",
      "has_batch_norm" : 0,
      "type" : "convolution",
      "n_groups" : 1,
      "pad_t" : 0,
      "has_biases" : 1,
      "C" : 64,
      "bottom" : "input.141",
      "weights" : {

      },
      "Nx" : 1,
      "pad_mode" : 0,
      "pad_value" : 0,
      "Ny" : 1,
      "n_parallel" : 1,
      "blob_weights_f16" : 271
    },
    {
      "bottom" : "input.149",
      "weights" : {

      },
      "mode" : 3,
      "debug_info" : "820__silu_sigmoid__",
      "top" : "820__silu_sigmoid__",
      "type" : "activation",
      "name" : "820__silu_sigmoid__"
    },
    {
      "bottom" : "input.149,820__silu_sigmoid__",
      "alpha" : 1,
      "operation" : 1,
      "weights" : {

      },
      "fused_relu" : 0,
      "debug_info" : "820",
      "top" : "820",
      "type" : "elementwise",
      "name" : "820",
      "beta" : 0
    },
    {
      "weights" : {

      },
      "debug_info" : "input.163",
      "top" : "input.163",
      "type" : "concat",
      "name" : "input.163",
      "bottom" : "811,820"
    },
    {
      "pad_r" : 0,
      "fused_relu" : 0,
      "fused_tanh" : 0,
      "debug_info" : "input0.16",
      "pad_fill_mode" : 0,
      "pad_b" : 0,
      "pad_l" : 0,
      "top" : "input0.16",
      "K" : 128,
      "blob_biases" : 273,
      "name" : "input0.16",
      "has_batch_norm" : 0,
      "type" : "convolution",
      "n_groups" : 1,
      "pad_t" : 0,
      "has_biases" : 1,
      "C" : 128,
      "bottom" : "input.163",
      "weights" : {

      },
      "Nx" : 1,
      "pad_mode" : 0,
      "pad_value" : 0,
      "Ny" : 1,
      "n_parallel" : 1,
      "blob_weights_f16" : 275
    },
    {
      "bottom" : "input0.16",
      "weights" : {

      },
      "mode" : 3,
      "debug_info" : "831__silu_sigmoid__",
      "top" : "831__silu_sigmoid__",
      "type" : "activation",
      "name" : "831__silu_sigmoid__"
    },
    {
      "bottom" : "input0.16,831__silu_sigmoid__",
      "alpha" : 1,
      "operation" : 1,
      "weights" : {

      },
      "fused_relu" : 0,
      "debug_info" : "831",
      "top" : "831",
      "type" : "elementwise",
      "name" : "831",
      "beta" : 0
    },
    {
      "pad_r" : 0,
      "fused_relu" : 0,
      "fused_tanh" : 0,
      "debug_info" : "input.155",
      "pad_fill_mode" : 0,
      "pad_b" : 0,
      "pad_l" : 0,
      "top" : "input.155",
      "K" : 128,
      "blob_biases" : 277,
      "name" : "input.155",
      "has_batch_norm" : 0,
      "type" : "convolution",
      "n_groups" : 1,
      "pad_t" : 0,
      "has_biases" : 1,
      "C" : 256,
      "bottom" : "831",
      "weights" : {

      },
      "Nx" : 1,
      "pad_mode" : 0,
      "pad_value" : 0,
      "Ny" : 1,
      "n_parallel" : 1,
      "blob_weights_f16" : 279
    },
    {
      "bottom" : "input.155",
      "weights" : {

      },
      "mode" : 3,
      "debug_info" : "843__silu_sigmoid__",
      "top" : "843__silu_sigmoid__",
      "type" : "activation",
      "name" : "843__silu_sigmoid__"
    },
    {
      "bottom" : "input.155,843__silu_sigmoid__",
      "alpha" : 1,
      "operation" : 1,
      "weights" : {

      },
      "fused_relu" : 0,
      "debug_info" : "843",
      "top" : "843",
      "type" : "elementwise",
      "name" : "843",
      "beta" : 0
    },
    {
      "pad_r" : 1,
      "fused_relu" : 0,
      "fused_tanh" : 0,
      "debug_info" : "input.157",
      "pad_fill_mode" : 0,
      "pad_b" : 1,
      "pad_l" : 1,
      "top" : "input.157",
      "K" : 256,
      "blob_biases" : 281,
      "stride_x" : 2,
      "name" : "input.157",
      "has_batch_norm" : 0,
      "type" : "convolution",
      "n_groups" : 256,
      "pad_t" : 1,
      "stride_y" : 2,
      "has_biases" : 1,
      "C" : 256,
      "bottom" : "843",
      "weights" : {

      },
      "Nx" : 3,
      "pad_mode" : 0,
      "pad_value" : 0,
      "Ny" : 3,
      "n_parallel" : 1,
      "blob_weights_f16" : 283
    },
    {
      "bottom" : "input.157",
      "weights" : {

      },
      "mode" : 3,
      "debug_info" : "852__silu_sigmoid__",
      "top" : "852__silu_sigmoid__",
      "type" : "activation",
      "name" : "852__silu_sigmoid__"
    },
    {
      "bottom" : "input.157,852__silu_sigmoid__",
      "alpha" : 1,
      "operation" : 1,
      "weights" : {

      },
      "fused_relu" : 0,
      "debug_info" : "852",
      "top" : "852",
      "type" : "elementwise",
      "name" : "852",
      "beta" : 0
    },
    {
      "pad_r" : 0,
      "fused_relu" : 0,
      "fused_tanh" : 0,
      "debug_info" : "input.151",
      "pad_fill_mode" : 0,
      "pad_b" : 0,
      "pad_l" : 0,
      "top" : "input.151",
      "K" : 256,
      "blob_biases" : 285,
      "name" : "input.151",
      "has_batch_norm" : 0,
      "type" : "convolution",
      "n_groups" : 1,
      "pad_t" : 0,
      "has_biases" : 1,
      "C" : 128,
      "bottom" : "852",
      "weights" : {

      },
      "Nx" : 1,
      "pad_mode" : 0,
      "pad_value" : 0,
      "Ny" : 1,
      "n_parallel" : 1,
      "blob_weights_f16" : 287
    },
    {
      "bottom" : "input.151",
      "weights" : {

      },
      "mode" : 3,
      "debug_info" : "861__silu_sigmoid__",
      "top" : "861__silu_sigmoid__",
      "type" : "activation",
      "name" : "861__silu_sigmoid__"
    },
    {
      "bottom" : "input.151,861__silu_sigmoid__",
      "alpha" : 1,
      "operation" : 1,
      "weights" : {

      },
      "fused_relu" : 0,
      "debug_info" : "861",
      "top" : "861",
      "type" : "elementwise",
      "name" : "861",
      "beta" : 0
    },
    {
      "weights" : {

      },
      "debug_info" : "input.161",
      "top" : "input.161",
      "type" : "concat",
      "name" : "input.161",
      "bottom" : "861,587"
    },
    {
      "pad_r" : 0,
      "fused_relu" : 0,
      "fused_tanh" : 0,
      "debug_info" : "input.8",
      "pad_fill_mode" : 0,
      "pad_b" : 0,
      "pad_l" : 0,
      "top" : "input.8",
      "K" : 256,
      "blob_biases" : 289,
      "name" : "input.8",
      "has_batch_norm" : 0,
      "type" : "convolution",
      "n_groups" : 1,
      "pad_t" : 0,
      "has_biases" : 1,
      "C" : 128,
      "bottom" : "input.161",
      "weights" : {

      },
      "Nx" : 1,
      "pad_mode" : 0,
      "pad_value" : 0,
      "Ny" : 1,
      "n_parallel" : 1,
      "blob_weights_f16" : 291
    },
    {
      "bottom" : "input.8",
      "weights" : {

      },
      "mode" : 3,
      "debug_info" : "876__silu_sigmoid__",
      "top" : "876__silu_sigmoid__",
      "type" : "activation",
      "name" : "876__silu_sigmoid__"
    },
    {
      "bottom" : "input.8,876__silu_sigmoid__",
      "alpha" : 1,
      "operation" : 1,
      "weights" : {

      },
      "fused_relu" : 0,
      "debug_info" : "876",
      "top" : "876",
      "type" : "elementwise",
      "name" : "876",
      "beta" : 0
    },
    {
      "pad_r" : 0,
      "fused_relu" : 0,
      "fused_tanh" : 0,
      "debug_info" : "input.2",
      "pad_fill_mode" : 0,
      "pad_b" : 0,
      "pad_l" : 0,
      "top" : "input.2",
      "K" : 128,
      "blob_biases" : 293,
      "name" : "input.2",
      "has_batch_norm" : 0,
      "type" : "convolution",
      "n_groups" : 1,
      "pad_t" : 0,
      "has_biases" : 1,
      "C" : 256,
      "bottom" : "876",
      "weights" : {

      },
      "Nx" : 1,
      "pad_mode" : 0,
      "pad_value" : 0,
      "Ny" : 1,
      "n_parallel" : 1,
      "blob_weights_f16" : 295
    },
    {
      "bottom" : "input.2",
      "weights" : {

      },
      "mode" : 3,
      "debug_info" : "890__silu_sigmoid__",
      "top" : "890__silu_sigmoid__",
      "type" : "activation",
      "name" : "890__silu_sigmoid__"
    },
    {
      "bottom" : "input.2,890__silu_sigmoid__",
      "alpha" : 1,
      "operation" : 1,
      "weights" : {

      },
      "fused_relu" : 0,
      "debug_info" : "890",
      "top" : "890",
      "type" : "elementwise",
      "name" : "890",
      "beta" : 0
    },
    {
      "pad_r" : 1,
      "fused_relu" : 0,
      "fused_tanh" : 0,
      "debug_info" : "input.4",
      "pad_fill_mode" : 0,
      "pad_b" : 1,
      "pad_l" : 1,
      "top" : "input.4",
      "K" : 256,
      "blob_biases" : 297,
      "name" : "input.4",
      "has_batch_norm" : 0,
      "type" : "convolution",
      "n_groups" : 256,
      "pad_t" : 1,
      "has_biases" : 1,
      "C" : 256,
      "bottom" : "890",
      "weights" : {

      },
      "Nx" : 3,
      "pad_mode" : 0,
      "pad_value" : 0,
      "Ny" : 3,
      "n_parallel" : 1,
      "blob_weights_f16" : 299
    },
    {
      "bottom" : "input.4",
      "weights" : {

      },
      "mode" : 3,
      "debug_info" : "899__silu_sigmoid__",
      "top" : "899__silu_sigmoid__",
      "type" : "activation",
      "name" : "899__silu_sigmoid__"
    },
    {
      "bottom" : "input.4,899__silu_sigmoid__",
      "alpha" : 1,
      "operation" : 1,
      "weights" : {

      },
      "fused_relu" : 0,
      "debug_info" : "899",
      "top" : "899",
      "type" : "elementwise",
      "name" : "899",
      "beta" : 0
    },
    {
      "pad_r" : 0,
      "fused_relu" : 0,
      "fused_tanh" : 0,
      "debug_info" : "input.10",
      "pad_fill_mode" : 0,
      "pad_b" : 0,
      "pad_l" : 0,
      "top" : "input.10",
      "K" : 256,
      "blob_biases" : 301,
      "name" : "input.10",
      "has_batch_norm" : 0,
      "type" : "convolution",
      "n_groups" : 1,
      "pad_t" : 0,
      "has_biases" : 1,
      "C" : 128,
      "bottom" : "899",
      "weights" : {

      },
      "Nx" : 1,
      "pad_mode" : 0,
      "pad_value" : 0,
      "Ny" : 1,
      "n_parallel" : 1,
      "blob_weights_f16" : 303
    },
    {
      "bottom" : "input.10",
      "weights" : {

      },
      "mode" : 3,
      "debug_info" : "908__silu_sigmoid__",
      "top" : "908__silu_sigmoid__",
      "type" : "activation",
      "name" : "908__silu_sigmoid__"
    },
    {
      "bottom" : "input.10,908__silu_sigmoid__",
      "alpha" : 1,
      "operation" : 1,
      "weights" : {

      },
      "fused_relu" : 0,
      "debug_info" : "908",
      "top" : "908",
      "type" : "elementwise",
      "name" : "908",
      "beta" : 0
    },
    {
      "pad_r" : 0,
      "fused_relu" : 0,
      "fused_tanh" : 0,
      "debug_info" : "input.1",
      "pad_fill_mode" : 0,
      "pad_b" : 0,
      "pad_l" : 0,
      "top" : "input.1",
      "K" : 256,
      "blob_biases" : 305,
      "name" : "input.1",
      "has_batch_norm" : 0,
      "type" : "convolution",
      "n_groups" : 1,
      "pad_t" : 0,
      "has_biases" : 1,
      "C" : 128,
      "bottom" : "input.161",
      "weights" : {

      },
      "Nx" : 1,
      "pad_mode" : 0,
      "pad_value" : 0,
      "Ny" : 1,
      "n_parallel" : 1,
      "blob_weights_f16" : 307
    },
    {
      "bottom" : "input.1",
      "weights" : {

      },
      "mode" : 3,
      "debug_info" : "917__silu_sigmoid__",
      "top" : "917__silu_sigmoid__",
      "type" : "activation",
      "name" : "917__silu_sigmoid__"
    },
    {
      "bottom" : "input.1,917__silu_sigmoid__",
      "alpha" : 1,
      "operation" : 1,
      "weights" : {

      },
      "fused_relu" : 0,
      "debug_info" : "917",
      "top" : "917",
      "type" : "elementwise",
      "name" : "917",
      "beta" : 0
    },
    {
      "weights" : {

      },
      "debug_info" : "input.6",
      "top" : "input.6",
      "type" : "concat",
      "name" : "input.6",
      "bottom" : "908,917"
    },
    {
      "pad_r" : 0,
      "fused_relu" : 0,
      "fused_tanh" : 0,
      "debug_info" : "input0.1",
      "pad_fill_mode" : 0,
      "pad_b" : 0,
      "pad_l" : 0,
      "top" : "input0.1",
      "K" : 256,
      "blob_biases" : 309,
      "name" : "input0.1",
      "has_batch_norm" : 0,
      "type" : "convolution",
      "n_groups" : 1,
      "pad_t" : 0,
      "has_biases" : 1,
      "C" : 256,
      "bottom" : "input.6",
      "weights" : {

      },
      "Nx" : 1,
      "pad_mode" : 0,
      "pad_value" : 0,
      "Ny" : 1,
      "n_parallel" : 1,
      "blob_weights_f16" : 311
    },
    {
      "bottom" : "input0.1",
      "weights" : {

      },
      "mode" : 3,
      "debug_info" : "928__silu_sigmoid__",
      "top" : "928__silu_sigmoid__",
      "type" : "activation",
      "name" : "928__silu_sigmoid__"
    },
    {
      "bottom" : "input0.1,928__silu_sigmoid__",
      "alpha" : 1,
      "operation" : 1,
      "weights" : {

      },
      "fused_relu" : 0,
      "debug_info" : "928",
      "top" : "928",
      "type" : "elementwise",
      "name" : "928",
      "beta" : 0
    },
    {
      "pad_r" : 0,
      "fused_relu" : 0,
      "fused_tanh" : 0,
      "debug_info" : "941",
      "pad_fill_mode" : 0,
      "pad_b" : 0,
      "pad_l" : 0,
      "top" : "941",
      "K" : 64,
      "blob_biases" : 313,
      "name" : "941",
      "has_batch_norm" : 0,
      "type" : "convolution",
      "n_groups" : 1,
      "pad_t" : 0,
      "has_biases" : 1,
      "C" : 18,
      "bottom" : "734",
      "weights" : {

      },
      "Nx" : 1,
      "pad_mode" : 0,
      "pad_value" : 0,
      "Ny" : 1,
      "n_parallel" : 1,
      "blob_weights_f16" : 315
    },
    {
      "name" : "946",
      "weights" : {

      },
      "dst_w" : 64,
      "version" : 1,
      "dst_n" : 3,
      "dst_nd_rank" : 5,
      "type" : "reshape",
      "dst_h" : 64,
      "mode" : 0,
      "dynamic_shape" : false,
      "bottom" : "941",
      "debug_info" : "946",
      "dst_seq" : 1,
      "dst_k" : 6,
      "top" : "946"
    },
    {
      "axis_h" : 0,
      "axis_w" : 2,
      "bottom" : "946",
      "axis_k" : 1,
      "axis_n" : 3,
      "axis_seq" : 4,
      "weights" : {

      },
      "debug_info" : "transpose_2",
      "top" : "transpose_2",
      "type" : "transpose",
      "name" : "transpose_2"
    },
    {
      "bottom" : "transpose_2",
      "weights" : {

      },
      "mode" : 3,
      "debug_info" : "950",
      "top" : "950",
      "type" : "activation",
      "name" : "950"
    },
    {
      "begin_104" : 0,
      "begin_63" : 0,
      "begin_59" : 0,
      "begin_64" : 0,
      "begin_105" : 0,
      "begin_65" : 0,
      "begin_0" : 0,
      "begin_70" : 0,
      "begin_66" : 0,
      "begin_106" : 0,
      "begin_110" : 0,
      "begin_2" : 0,
      "begin_71" : 0,
      "begin_67" : 0,
      "begin_68" : 0,
      "begin_107" : 0,
      "begin_111" : 0,
      "begin_4" : 0,
      "begin_72" : 0,
      "begin_73" : 0,
      "begin_69" : 0,
      "begin_6" : 0,
      "begin_74" : 0,
      "begin_108" : 0,
      "type" : "split_nd",
      "begin_8" : 0,
      "begin_112" : 0,
      "begin_75" : 0,
      "begin_10" : 0,
      "begin_80" : 0,
      "begin_76" : 0,
      "begin_109" : 0,
      "begin_113" : 0,
      "begin_11" : 0,
      "nd_axis" : 4,
      "begin_81" : 0,
      "begin_77" : 0,
      "begin_114" : 0,
      "begin_12" : 0,
      "begin_78" : 0,
      "begin_82" : 0,
      "begin_13" : 0,
      "begin_83" : 0,
      "begin_79" : 0,
      "begin_115" : 0,
      "begin_14" : 0,
      "begin_84" : 0,
      "begin_15" : 0,
      "begin_85" : 0,
      "num_splits" : 3,
      "begin_116" : 0,
      "begin_120" : 0,
      "begin_20" : 0,
      "begin_86" : 0,
      "begin_16" : 0,
      "begin_90" : 0,
      "begin_21" : 0,
      "begin_91" : 0,
      "begin_87" : 0,
      "begin_17" : 0,
      "begin_117" : 0,
      "begin_121" : 0,
      "begin_18" : 0,
      "begin_92" : 0,
      "begin_88" : 0,
      "begin_22" : 0,
      "begin_23" : 0,
      "begin_89" : 0,
      "begin_19" : 0,
      "begin_93" : 0,
      "begin_118" : 0,
      "begin_122" : 0,
      "begin_24" : 0,
      "begin_94" : 0,
      "begin_25" : 0,
      "begin_95" : 0,
      "begin_119" : 0,
      "begin_123" : 0,
      "begin_30" : 0,
      "begin_26" : 0,
      "begin_96" : 0,
      "begin_124" : 0,
      "begin_31" : 0,
      "begin_97" : 0,
      "begin_27" : 0,
      "begin_28" : 0,
      "begin_98" : 0,
      "begin_32" : 0,
      "begin_125" : 0,
      "begin_33" : 0,
      "begin_29" : 0,
      "begin_99" : 0,
      "begin_1" : 0,
      "weights" : {

      },
      "begin_34" : 0,
      "bottom" : "950",
      "begin_3" : 0,
      "begin_126" : 0,
      "begin_35" : 0,
      "begin_5" : 0,
      "begin_36" : 0,
      "begin_40" : 0,
      "begin_127" : 0,
      "name" : "952",
      "begin_41" : 0,
      "begin_37" : 0,
      "begin_7" : 0,
      "begin_42" : 0,
      "begin_38" : 0,
      "begin_9" : 0,
      "begin_39" : 0,
      "begin_43" : 0,
      "begin_44" : 0,
      "begin_45" : 0,
      "begin_50" : 0,
      "begin_46" : 0,
      "begin_51" : 0,
      "begin_47" : 0,
      "begin_100" : 0,
      "begin_52" : 0,
      "debug_info" : "952",
      "begin_48" : 0,
      "top" : "952_0,952_1,952_2",
      "begin_101" : 0,
      "begin_53" : 0,
      "begin_49" : 0,
      "begin_54" : 0,
      "begin_55" : 0,
      "begin_102" : 0,
      "begin_60" : 0,
      "begin_56" : 0,
      "begin_103" : 0,
      "begin_57" : 0,
      "begin_61" : 0,
      "begin_62" : 0,
      "begin_58" : 0
    },
    {
      "bottom" : "952_0",
      "alpha" : 2,
      "operation" : 1,
      "weights" : {

      },
      "fused_relu" : 0,
      "debug_info" : "957",
      "top" : "957",
      "type" : "elementwise",
      "name" : "957",
      "beta" : 0
    },
    {
      "top" : "16",
      "w" : 2,
      "h" : 64,
      "name" : "16",
      "nd_rank" : 5,
      "type" : "load_constant",
      "k" : 64,
      "bottom" : "",
      "debug_info" : "16",
      "n" : 3,
      "weights" : {

      },
      "constant_blob" : 317
    },
    {
      "bottom" : "957,16",
      "alpha" : 1,
      "operation" : 0,
      "weights" : {

      },
      "fused_relu" : 0,
      "debug_info" : "958",
      "top" : "958",
      "type" : "elementwise",
      "name" : "958",
      "beta" : 0
    },
    {
      "bottom" : "958",
      "alpha" : 8,
      "operation" : 1,
      "weights" : {

      },
      "fused_relu" : 0,
      "debug_info" : "xy0.1",
      "top" : "xy0.1",
      "type" : "elementwise",
      "name" : "xy0.1",
      "beta" : 0
    },
    {
      "bottom" : "952_1",
      "alpha" : 2,
      "operation" : 1,
      "weights" : {

      },
      "fused_relu" : 0,
      "debug_info" : "962",
      "top" : "962",
      "type" : "elementwise",
      "name" : "962",
      "beta" : 0
    },
    {
      "bottom" : "962",
      "alpha" : 2,
      "operation" : 13,
      "weights" : {

      },
      "fused_relu" : 0,
      "debug_info" : "963",
      "top" : "963",
      "type" : "elementwise",
      "name" : "963",
      "beta" : 0
    },
    {
      "top" : "14",
      "w" : 2,
      "h" : 64,
      "name" : "14",
      "nd_rank" : 5,
      "type" : "load_constant",
      "k" : 64,
      "bottom" : "",
      "debug_info" : "14",
      "n" : 3,
      "weights" : {

      },
      "constant_blob" : 319
    },
    {
      "bottom" : "963,14",
      "alpha" : 1,
      "operation" : 1,
      "weights" : {

      },
      "fused_relu" : 0,
      "debug_info" : "wh0.1",
      "top" : "wh0.1",
      "type" : "elementwise",
      "name" : "wh0.1",
      "beta" : 0
    },
    {
      "top" : "_inversed_xy1.1_y_0",
      "w" : 2,
      "h" : 1,
      "name" : "_inversed_xy1.1_y_0",
      "nd_rank" : 2,
      "type" : "load_constant",
      "k" : 1,
      "bottom" : "",
      "debug_info" : "_inversed_xy1.1_y_0",
      "n" : 1,
      "weights" : {

      },
      "constant_blob" : 321
    },
    {
      "bottom" : "xy0.1,_inversed_xy1.1_y_0",
      "alpha" : 1,
      "operation" : 1,
      "weights" : {

      },
      "fused_relu" : 0,
      "debug_info" : "_inversed_xy1.1",
      "nd_mode" : true,
      "top" : "_inversed_xy1.1",
      "type" : "elementwise",
      "name" : "_inversed_xy1.1",
      "beta" : 0
    },
    {
      "top" : "_inversed_wh1.1_y_0",
      "w" : 2,
      "h" : 1,
      "name" : "_inversed_wh1.1_y_0",
      "nd_rank" : 2,
      "type" : "load_constant",
      "k" : 1,
      "bottom" : "",
      "debug_info" : "_inversed_wh1.1_y_0",
      "n" : 1,
      "weights" : {

      },
      "constant_blob" : 323
    },
    {
      "bottom" : "wh0.1,_inversed_wh1.1_y_0",
      "alpha" : 1,
      "operation" : 1,
      "weights" : {

      },
      "fused_relu" : 0,
      "debug_info" : "_inversed_wh1.1",
      "nd_mode" : true,
      "top" : "_inversed_wh1.1",
      "type" : "elementwise",
      "name" : "_inversed_wh1.1",
      "beta" : 0
    },
    {
      "bottom" : "_inversed_xy1.1,_inversed_wh1.1,952_2",
      "weights" : {

      },
      "nd_mode" : true,
      "axis" : 4,
      "debug_info" : "y.1",
      "top" : "y.1",
      "type" : "general_concat",
      "name" : "y.1"
    },
    {
      "name" : "972",
      "weights" : {

      },
      "dst_w" : 6,
      "version" : 1,
      "dst_n" : 1,
      "dst_nd_rank" : 3,
      "type" : "reshape",
      "dst_h" : -1,
      "mode" : 0,
      "dynamic_shape" : false,
      "bottom" : "y.1",
      "debug_info" : "972",
      "dst_seq" : 1,
      "dst_k" : 1,
      "top" : "972"
    },
    {
      "pad_r" : 0,
      "fused_relu" : 0,
      "fused_tanh" : 0,
      "debug_info" : "979",
      "pad_fill_mode" : 0,
      "pad_b" : 0,
      "pad_l" : 0,
      "top" : "979",
      "K" : 128,
      "blob_biases" : 325,
      "name" : "979",
      "has_batch_norm" : 0,
      "type" : "convolution",
      "n_groups" : 1,
      "pad_t" : 0,
      "has_biases" : 1,
      "C" : 18,
      "bottom" : "831",
      "weights" : {

      },
      "Nx" : 1,
      "pad_mode" : 0,
      "pad_value" : 0,
      "Ny" : 1,
      "n_parallel" : 1,
      "blob_weights_f16" : 327
    },
    {
      "name" : "984",
      "weights" : {

      },
      "dst_w" : 32,
      "version" : 1,
      "dst_n" : 3,
      "dst_nd_rank" : 5,
      "type" : "reshape",
      "dst_h" : 32,
      "mode" : 0,
      "dynamic_shape" : false,
      "bottom" : "979",
      "debug_info" : "984",
      "dst_seq" : 1,
      "dst_k" : 6,
      "top" : "984"
    },
    {
      "axis_h" : 0,
      "axis_w" : 2,
      "bottom" : "984",
      "axis_k" : 1,
      "axis_n" : 3,
      "axis_seq" : 4,
      "weights" : {

      },
      "debug_info" : "transpose_1",
      "top" : "transpose_1",
      "type" : "transpose",
      "name" : "transpose_1"
    },
    {
      "bottom" : "transpose_1",
      "weights" : {

      },
      "mode" : 3,
      "debug_info" : "988",
      "top" : "988",
      "type" : "activation",
      "name" : "988"
    },
    {
      "begin_104" : 0,
      "begin_63" : 0,
      "begin_59" : 0,
      "begin_64" : 0,
      "begin_105" : 0,
      "begin_65" : 0,
      "begin_0" : 0,
      "begin_70" : 0,
      "begin_66" : 0,
      "begin_106" : 0,
      "begin_110" : 0,
      "begin_2" : 0,
      "begin_71" : 0,
      "begin_67" : 0,
      "begin_68" : 0,
      "begin_107" : 0,
      "begin_111" : 0,
      "begin_4" : 0,
      "begin_72" : 0,
      "begin_73" : 0,
      "begin_69" : 0,
      "begin_6" : 0,
      "begin_74" : 0,
      "begin_108" : 0,
      "type" : "split_nd",
      "begin_8" : 0,
      "begin_112" : 0,
      "begin_75" : 0,
      "begin_10" : 0,
      "begin_80" : 0,
      "begin_76" : 0,
      "begin_109" : 0,
      "begin_113" : 0,
      "begin_11" : 0,
      "nd_axis" : 4,
      "begin_81" : 0,
      "begin_77" : 0,
      "begin_114" : 0,
      "begin_12" : 0,
      "begin_78" : 0,
      "begin_82" : 0,
      "begin_13" : 0,
      "begin_83" : 0,
      "begin_79" : 0,
      "begin_115" : 0,
      "begin_14" : 0,
      "begin_84" : 0,
      "begin_15" : 0,
      "begin_85" : 0,
      "num_splits" : 3,
      "begin_116" : 0,
      "begin_120" : 0,
      "begin_20" : 0,
      "begin_86" : 0,
      "begin_16" : 0,
      "begin_90" : 0,
      "begin_21" : 0,
      "begin_91" : 0,
      "begin_87" : 0,
      "begin_17" : 0,
      "begin_117" : 0,
      "begin_121" : 0,
      "begin_18" : 0,
      "begin_92" : 0,
      "begin_88" : 0,
      "begin_22" : 0,
      "begin_23" : 0,
      "begin_89" : 0,
      "begin_19" : 0,
      "begin_93" : 0,
      "begin_118" : 0,
      "begin_122" : 0,
      "begin_24" : 0,
      "begin_94" : 0,
      "begin_25" : 0,
      "begin_95" : 0,
      "begin_119" : 0,
      "begin_123" : 0,
      "begin_30" : 0,
      "begin_26" : 0,
      "begin_96" : 0,
      "begin_124" : 0,
      "begin_31" : 0,
      "begin_97" : 0,
      "begin_27" : 0,
      "begin_28" : 0,
      "begin_98" : 0,
      "begin_32" : 0,
      "begin_125" : 0,
      "begin_33" : 0,
      "begin_29" : 0,
      "begin_99" : 0,
      "begin_1" : 0,
      "weights" : {

      },
      "begin_34" : 0,
      "bottom" : "988",
      "begin_3" : 0,
      "begin_126" : 0,
      "begin_35" : 0,
      "begin_5" : 0,
      "begin_36" : 0,
      "begin_40" : 0,
      "begin_127" : 0,
      "name" : "990",
      "begin_41" : 0,
      "begin_37" : 0,
      "begin_7" : 0,
      "begin_42" : 0,
      "begin_38" : 0,
      "begin_9" : 0,
      "begin_39" : 0,
      "begin_43" : 0,
      "begin_44" : 0,
      "begin_45" : 0,
      "begin_50" : 0,
      "begin_46" : 0,
      "begin_51" : 0,
      "begin_47" : 0,
      "begin_100" : 0,
      "begin_52" : 0,
      "debug_info" : "990",
      "begin_48" : 0,
      "top" : "990_0,990_1,990_2",
      "begin_101" : 0,
      "begin_53" : 0,
      "begin_49" : 0,
      "begin_54" : 0,
      "begin_55" : 0,
      "begin_102" : 0,
      "begin_60" : 0,
      "begin_56" : 0,
      "begin_103" : 0,
      "begin_57" : 0,
      "begin_61" : 0,
      "begin_62" : 0,
      "begin_58" : 0
    },
    {
      "bottom" : "990_0",
      "alpha" : 2,
      "operation" : 1,
      "weights" : {

      },
      "fused_relu" : 0,
      "debug_info" : "995",
      "top" : "995",
      "type" : "elementwise",
      "name" : "995",
      "beta" : 0
    },
    {
      "top" : "11",
      "w" : 2,
      "h" : 32,
      "name" : "11",
      "nd_rank" : 5,
      "type" : "load_constant",
      "k" : 32,
      "bottom" : "",
      "debug_info" : "11",
      "n" : 3,
      "weights" : {

      },
      "constant_blob" : 329
    },
    {
      "bottom" : "995,11",
      "alpha" : 1,
      "operation" : 0,
      "weights" : {

      },
      "fused_relu" : 0,
      "debug_info" : "996",
      "top" : "996",
      "type" : "elementwise",
      "name" : "996",
      "beta" : 0
    },
    {
      "bottom" : "996",
      "alpha" : 16,
      "operation" : 1,
      "weights" : {

      },
      "fused_relu" : 0,
      "debug_info" : "xy3.1",
      "top" : "xy3.1",
      "type" : "elementwise",
      "name" : "xy3.1",
      "beta" : 0
    },
    {
      "bottom" : "990_1",
      "alpha" : 2,
      "operation" : 1,
      "weights" : {

      },
      "fused_relu" : 0,
      "debug_info" : "1000",
      "top" : "1000",
      "type" : "elementwise",
      "name" : "1000",
      "beta" : 0
    },
    {
      "bottom" : "1000",
      "alpha" : 2,
      "operation" : 13,
      "weights" : {

      },
      "fused_relu" : 0,
      "debug_info" : "1001",
      "top" : "1001",
      "type" : "elementwise",
      "name" : "1001",
      "beta" : 0
    },
    {
      "top" : "10",
      "w" : 2,
      "h" : 32,
      "name" : "10",
      "nd_rank" : 5,
      "type" : "load_constant",
      "k" : 32,
      "bottom" : "",
      "debug_info" : "10",
      "n" : 3,
      "weights" : {

      },
      "constant_blob" : 331
    },
    {
      "bottom" : "1001,10",
      "alpha" : 1,
      "operation" : 1,
      "weights" : {

      },
      "fused_relu" : 0,
      "debug_info" : "wh3.1",
      "top" : "wh3.1",
      "type" : "elementwise",
      "name" : "wh3.1",
      "beta" : 0
    },
    {
      "top" : "_inversed_xy4.1_y_0",
      "w" : 2,
      "h" : 1,
      "name" : "_inversed_xy4.1_y_0",
      "nd_rank" : 2,
      "type" : "load_constant",
      "k" : 1,
      "bottom" : "",
      "debug_info" : "_inversed_xy4.1_y_0",
      "n" : 1,
      "weights" : {

      },
      "constant_blob" : 333
    },
    {
      "bottom" : "xy3.1,_inversed_xy4.1_y_0",
      "alpha" : 1,
      "operation" : 1,
      "weights" : {

      },
      "fused_relu" : 0,
      "debug_info" : "_inversed_xy4.1",
      "nd_mode" : true,
      "top" : "_inversed_xy4.1",
      "type" : "elementwise",
      "name" : "_inversed_xy4.1",
      "beta" : 0
    },
    {
      "top" : "_inversed_wh4.1_y_0",
      "w" : 2,
      "h" : 1,
      "name" : "_inversed_wh4.1_y_0",
      "nd_rank" : 2,
      "type" : "load_constant",
      "k" : 1,
      "bottom" : "",
      "debug_info" : "_inversed_wh4.1_y_0",
      "n" : 1,
      "weights" : {

      },
      "constant_blob" : 335
    },
    {
      "bottom" : "wh3.1,_inversed_wh4.1_y_0",
      "alpha" : 1,
      "operation" : 1,
      "weights" : {

      },
      "fused_relu" : 0,
      "debug_info" : "_inversed_wh4.1",
      "nd_mode" : true,
      "top" : "_inversed_wh4.1",
      "type" : "elementwise",
      "name" : "_inversed_wh4.1",
      "beta" : 0
    },
    {
      "bottom" : "_inversed_xy4.1,_inversed_wh4.1,990_2",
      "weights" : {

      },
      "nd_mode" : true,
      "axis" : 4,
      "debug_info" : "y0.1",
      "top" : "y0.1",
      "type" : "general_concat",
      "name" : "y0.1"
    },
    {
      "name" : "1010",
      "weights" : {

      },
      "dst_w" : 6,
      "version" : 1,
      "dst_n" : 1,
      "dst_nd_rank" : 3,
      "type" : "reshape",
      "dst_h" : -1,
      "mode" : 0,
      "dynamic_shape" : false,
      "bottom" : "y0.1",
      "debug_info" : "1010",
      "dst_seq" : 1,
      "dst_k" : 1,
      "top" : "1010"
    },
    {
      "pad_r" : 0,
      "fused_relu" : 0,
      "fused_tanh" : 0,
      "debug_info" : "1017",
      "pad_fill_mode" : 0,
      "pad_b" : 0,
      "pad_l" : 0,
      "top" : "1017",
      "K" : 256,
      "blob_biases" : 337,
      "name" : "1017",
      "has_batch_norm" : 0,
      "type" : "convolution",
      "n_groups" : 1,
      "pad_t" : 0,
      "has_biases" : 1,
      "C" : 18,
      "bottom" : "928",
      "weights" : {

      },
      "Nx" : 1,
      "pad_mode" : 0,
      "pad_value" : 0,
      "Ny" : 1,
      "n_parallel" : 1,
      "blob_weights_f16" : 339
    },
    {
      "name" : "1022",
      "weights" : {

      },
      "dst_w" : 16,
      "version" : 1,
      "dst_n" : 3,
      "dst_nd_rank" : 5,
      "type" : "reshape",
      "dst_h" : 16,
      "mode" : 0,
      "dynamic_shape" : false,
      "bottom" : "1017",
      "debug_info" : "1022",
      "dst_seq" : 1,
      "dst_k" : 6,
      "top" : "1022"
    },
    {
      "axis_h" : 0,
      "axis_w" : 2,
      "bottom" : "1022",
      "axis_k" : 1,
      "axis_n" : 3,
      "axis_seq" : 4,
      "weights" : {

      },
      "debug_info" : "transpose_0",
      "top" : "transpose_0",
      "type" : "transpose",
      "name" : "transpose_0"
    },
    {
      "bottom" : "transpose_0",
      "weights" : {

      },
      "mode" : 3,
      "debug_info" : "1026",
      "top" : "1026",
      "type" : "activation",
      "name" : "1026"
    },
    {
      "begin_104" : 0,
      "begin_63" : 0,
      "begin_59" : 0,
      "begin_64" : 0,
      "begin_105" : 0,
      "begin_65" : 0,
      "begin_0" : 0,
      "begin_70" : 0,
      "begin_66" : 0,
      "begin_106" : 0,
      "begin_110" : 0,
      "begin_2" : 0,
      "begin_71" : 0,
      "begin_67" : 0,
      "begin_68" : 0,
      "begin_107" : 0,
      "begin_111" : 0,
      "begin_4" : 0,
      "begin_72" : 0,
      "begin_73" : 0,
      "begin_69" : 0,
      "begin_6" : 0,
      "begin_74" : 0,
      "begin_108" : 0,
      "type" : "split_nd",
      "begin_8" : 0,
      "begin_112" : 0,
      "begin_75" : 0,
      "begin_10" : 0,
      "begin_80" : 0,
      "begin_76" : 0,
      "begin_109" : 0,
      "begin_113" : 0,
      "begin_11" : 0,
      "nd_axis" : 4,
      "begin_81" : 0,
      "begin_77" : 0,
      "begin_114" : 0,
      "begin_12" : 0,
      "begin_78" : 0,
      "begin_82" : 0,
      "begin_13" : 0,
      "begin_83" : 0,
      "begin_79" : 0,
      "begin_115" : 0,
      "begin_14" : 0,
      "begin_84" : 0,
      "begin_15" : 0,
      "begin_85" : 0,
      "num_splits" : 3,
      "begin_116" : 0,
      "begin_120" : 0,
      "begin_20" : 0,
      "begin_86" : 0,
      "begin_16" : 0,
      "begin_90" : 0,
      "begin_21" : 0,
      "begin_91" : 0,
      "begin_87" : 0,
      "begin_17" : 0,
      "begin_117" : 0,
      "begin_121" : 0,
      "begin_18" : 0,
      "begin_92" : 0,
      "begin_88" : 0,
      "begin_22" : 0,
      "begin_23" : 0,
      "begin_89" : 0,
      "begin_19" : 0,
      "begin_93" : 0,
      "begin_118" : 0,
      "begin_122" : 0,
      "begin_24" : 0,
      "begin_94" : 0,
      "begin_25" : 0,
      "begin_95" : 0,
      "begin_119" : 0,
      "begin_123" : 0,
      "begin_30" : 0,
      "begin_26" : 0,
      "begin_96" : 0,
      "begin_124" : 0,
      "begin_31" : 0,
      "begin_97" : 0,
      "begin_27" : 0,
      "begin_28" : 0,
      "begin_98" : 0,
      "begin_32" : 0,
      "begin_125" : 0,
      "begin_33" : 0,
      "begin_29" : 0,
      "begin_99" : 0,
      "begin_1" : 0,
      "weights" : {

      },
      "begin_34" : 0,
      "bottom" : "1026",
      "begin_3" : 0,
      "begin_126" : 0,
      "begin_35" : 0,
      "begin_5" : 0,
      "begin_36" : 0,
      "begin_40" : 0,
      "begin_127" : 0,
      "name" : "1028",
      "begin_41" : 0,
      "begin_37" : 0,
      "begin_7" : 0,
      "begin_42" : 0,
      "begin_38" : 0,
      "begin_9" : 0,
      "begin_39" : 0,
      "begin_43" : 0,
      "begin_44" : 0,
      "begin_45" : 0,
      "begin_50" : 0,
      "begin_46" : 0,
      "begin_51" : 0,
      "begin_47" : 0,
      "begin_100" : 0,
      "begin_52" : 0,
      "debug_info" : "1028",
      "begin_48" : 0,
      "top" : "1028_0,1028_1,1028_2",
      "begin_101" : 0,
      "begin_53" : 0,
      "begin_49" : 0,
      "begin_54" : 0,
      "begin_55" : 0,
      "begin_102" : 0,
      "begin_60" : 0,
      "begin_56" : 0,
      "begin_103" : 0,
      "begin_57" : 0,
      "begin_61" : 0,
      "begin_62" : 0,
      "begin_58" : 0
    },
    {
      "bottom" : "1028_0",
      "alpha" : 2,
      "operation" : 1,
      "weights" : {

      },
      "fused_relu" : 0,
      "debug_info" : "1033",
      "top" : "1033",
      "type" : "elementwise",
      "name" : "1033",
      "beta" : 0
    },
    {
      "top" : "9",
      "w" : 2,
      "h" : 16,
      "name" : "9",
      "nd_rank" : 5,
      "type" : "load_constant",
      "k" : 16,
      "bottom" : "",
      "debug_info" : "9",
      "n" : 3,
      "weights" : {

      },
      "constant_blob" : 341
    },
    {
      "bottom" : "1033,9",
      "alpha" : 1,
      "operation" : 0,
      "weights" : {

      },
      "fused_relu" : 0,
      "debug_info" : "1034",
      "top" : "1034",
      "type" : "elementwise",
      "name" : "1034",
      "beta" : 0
    },
    {
      "bottom" : "1034",
      "alpha" : 32,
      "operation" : 1,
      "weights" : {

      },
      "fused_relu" : 0,
      "debug_info" : "xy6.1",
      "top" : "xy6.1",
      "type" : "elementwise",
      "name" : "xy6.1",
      "beta" : 0
    },
    {
      "bottom" : "1028_1",
      "alpha" : 2,
      "operation" : 1,
      "weights" : {

      },
      "fused_relu" : 0,
      "debug_info" : "1038",
      "top" : "1038",
      "type" : "elementwise",
      "name" : "1038",
      "beta" : 0
    },
    {
      "bottom" : "1038",
      "alpha" : 2,
      "operation" : 13,
      "weights" : {

      },
      "fused_relu" : 0,
      "debug_info" : "1039",
      "top" : "1039",
      "type" : "elementwise",
      "name" : "1039",
      "beta" : 0
    },
    {
      "top" : "8",
      "w" : 2,
      "h" : 16,
      "name" : "8",
      "nd_rank" : 5,
      "type" : "load_constant",
      "k" : 16,
      "bottom" : "",
      "debug_info" : "8",
      "n" : 3,
      "weights" : {

      },
      "constant_blob" : 343
    },
    {
      "bottom" : "1039,8",
      "alpha" : 1,
      "operation" : 1,
      "weights" : {

      },
      "fused_relu" : 0,
      "debug_info" : "wh6.1",
      "top" : "wh6.1",
      "type" : "elementwise",
      "name" : "wh6.1",
      "beta" : 0
    },
    {
      "top" : "_inversed_xy7.1_y_0",
      "w" : 2,
      "h" : 1,
      "name" : "_inversed_xy7.1_y_0",
      "nd_rank" : 2,
      "type" : "load_constant",
      "k" : 1,
      "bottom" : "",
      "debug_info" : "_inversed_xy7.1_y_0",
      "n" : 1,
      "weights" : {

      },
      "constant_blob" : 345
    },
    {
      "bottom" : "xy6.1,_inversed_xy7.1_y_0",
      "alpha" : 1,
      "operation" : 1,
      "weights" : {

      },
      "fused_relu" : 0,
      "debug_info" : "_inversed_xy7.1",
      "nd_mode" : true,
      "top" : "_inversed_xy7.1",
      "type" : "elementwise",
      "name" : "_inversed_xy7.1",
      "beta" : 0
    },
    {
      "top" : "_inversed_wh7.1_y_0",
      "w" : 2,
      "h" : 1,
      "name" : "_inversed_wh7.1_y_0",
      "nd_rank" : 2,
      "type" : "load_constant",
      "k" : 1,
      "bottom" : "",
      "debug_info" : "_inversed_wh7.1_y_0",
      "n" : 1,
      "weights" : {

      },
      "constant_blob" : 347
    },
    {
      "bottom" : "wh6.1,_inversed_wh7.1_y_0",
      "alpha" : 1,
      "operation" : 1,
      "weights" : {

      },
      "fused_relu" : 0,
      "debug_info" : "_inversed_wh7.1",
      "nd_mode" : true,
      "top" : "_inversed_wh7.1",
      "type" : "elementwise",
      "name" : "_inversed_wh7.1",
      "beta" : 0
    },
    {
      "bottom" : "_inversed_xy7.1,_inversed_wh7.1,1028_2",
      "weights" : {

      },
      "nd_mode" : true,
      "axis" : 4,
      "debug_info" : "y1.1",
      "top" : "y1.1",
      "type" : "general_concat",
      "name" : "y1.1"
    },
    {
      "name" : "1048",
      "weights" : {

      },
      "dst_w" : 6,
      "version" : 1,
      "dst_n" : 1,
      "dst_nd_rank" : 3,
      "type" : "reshape",
      "dst_h" : -1,
      "mode" : 0,
      "dynamic_shape" : false,
      "bottom" : "y1.1",
      "debug_info" : "1048",
      "dst_seq" : 1,
      "dst_k" : 1,
      "top" : "1048"
    },
    {
      "bottom" : "972,1010,1048",
      "weights" : {

      },
      "nd_mode" : true,
      "debug_info" : "1050",
      "axis" : 1,
      "top" : "output",
      "type" : "general_concat",
      "name" : "1050",
      "attributes" : {
        "is_output" : 1
      }
    }
  ]
}