{
  "storage" : "model.espresso.weights",
  "analyses" : {

  },
  "properties" : {

  },
  "format_version" : 200,
  "metadata_in_weights" : [

  ],
  "layers" : [
    {
      "name" : "input0.3",
      "weights" : {

      },
      "dst_w" : 128,
      "version" : 1,
      "dst_n" : 1,
      "dst_nd_rank" : 4,
      "type" : "reshape",
      "dst_h" : 96,
      "mode" : 0,
      "dynamic_shape" : false,
      "bottom" : "input",
      "debug_info" : "input0.3",
      "dst_seq" : 1,
      "dst_k" : 3,
      "top" : "input0.3"
    },
    {
      "pad_r" : 2,
      "fused_relu" : 0,
      "fused_tanh" : 0,
      "debug_info" : "input.33",
      "pad_fill_mode" : 0,
      "pad_b" : 2,
      "pad_l" : 2,
      "top" : "input.33",
      "K" : 3,
      "blob_biases" : 1,
      "stride_x" : 2,
      "name" : "input.33",
      "has_batch_norm" : 0,
      "type" : "convolution",
      "n_groups" : 1,
      "pad_t" : 2,
      "stride_y" : 2,
      "has_biases" : 1,
      "C" : 16,
      "bottom" : "input0.3",
      "weights" : {

      },
      "Nx" : 6,
      "pad_mode" : 0,
      "pad_value" : 0,
      "Ny" : 6,
      "n_parallel" : 1,
      "blob_weights_f16" : 3
    },
    {
      "bottom" : "input.33",
      "weights" : {

      },
      "mode" : 3,
      "debug_info" : "76__silu_sigmoid__",
      "top" : "76__silu_sigmoid__",
      "type" : "activation",
      "name" : "76__silu_sigmoid__"
    },
    {
      "bottom" : "input.33,76__silu_sigmoid__",
      "alpha" : 1,
      "operation" : 1,
      "weights" : {

      },
      "fused_relu" : 0,
      "debug_info" : "76",
      "top" : "76",
      "type" : "elementwise",
      "name" : "76",
      "beta" : 0
    },
    {
      "pad_r" : 1,
      "fused_relu" : 0,
      "fused_tanh" : 0,
      "debug_info" : "input.31",
      "pad_fill_mode" : 0,
      "pad_b" : 1,
      "pad_l" : 1,
      "top" : "input.31",
      "K" : 16,
      "blob_biases" : 5,
      "stride_x" : 2,
      "name" : "input.31",
      "has_batch_norm" : 0,
      "type" : "convolution",
      "n_groups" : 1,
      "pad_t" : 1,
      "stride_y" : 2,
      "has_biases" : 1,
      "C" : 32,
      "bottom" : "76",
      "weights" : {

      },
      "Nx" : 3,
      "pad_mode" : 0,
      "pad_value" : 0,
      "Ny" : 3,
      "n_parallel" : 1,
      "blob_weights_f16" : 7
    },
    {
      "bottom" : "input.31",
      "weights" : {

      },
      "mode" : 3,
      "debug_info" : "85__silu_sigmoid__",
      "top" : "85__silu_sigmoid__",
      "type" : "activation",
      "name" : "85__silu_sigmoid__"
    },
    {
      "bottom" : "input.31,85__silu_sigmoid__",
      "alpha" : 1,
      "operation" : 1,
      "weights" : {

      },
      "fused_relu" : 0,
      "debug_info" : "85",
      "top" : "85",
      "type" : "elementwise",
      "name" : "85",
      "beta" : 0
    },
    {
      "pad_r" : 0,
      "fused_relu" : 0,
      "fused_tanh" : 0,
      "debug_info" : "input.13",
      "pad_fill_mode" : 0,
      "pad_b" : 0,
      "pad_l" : 0,
      "top" : "input.13",
      "K" : 32,
      "blob_biases" : 9,
      "name" : "input.13",
      "has_batch_norm" : 0,
      "type" : "convolution",
      "n_groups" : 1,
      "pad_t" : 0,
      "has_biases" : 1,
      "C" : 16,
      "bottom" : "85",
      "weights" : {

      },
      "Nx" : 1,
      "pad_mode" : 0,
      "pad_value" : 0,
      "Ny" : 1,
      "n_parallel" : 1,
      "blob_weights_f16" : 11
    },
    {
      "bottom" : "input.13",
      "weights" : {

      },
      "mode" : 3,
      "debug_info" : "98__silu_sigmoid__",
      "top" : "98__silu_sigmoid__",
      "type" : "activation",
      "name" : "98__silu_sigmoid__"
    },
    {
      "bottom" : "input.13,98__silu_sigmoid__",
      "alpha" : 1,
      "operation" : 1,
      "weights" : {

      },
      "fused_relu" : 0,
      "debug_info" : "98",
      "top" : "98",
      "type" : "elementwise",
      "name" : "98",
      "beta" : 0
    },
    {
      "pad_r" : 0,
      "fused_relu" : 0,
      "fused_tanh" : 0,
      "debug_info" : "input.15",
      "pad_fill_mode" : 0,
      "pad_b" : 0,
      "pad_l" : 0,
      "top" : "input.15",
      "K" : 16,
      "blob_biases" : 13,
      "name" : "input.15",
      "has_batch_norm" : 0,
      "type" : "convolution",
      "n_groups" : 1,
      "pad_t" : 0,
      "has_biases" : 1,
      "C" : 16,
      "bottom" : "98",
      "weights" : {

      },
      "Nx" : 1,
      "pad_mode" : 0,
      "pad_value" : 0,
      "Ny" : 1,
      "n_parallel" : 1,
      "blob_weights_f16" : 15
    },
    {
      "bottom" : "input.15",
      "weights" : {

      },
      "mode" : 3,
      "debug_info" : "110__silu_sigmoid__",
      "top" : "110__silu_sigmoid__",
      "type" : "activation",
      "name" : "110__silu_sigmoid__"
    },
    {
      "bottom" : "input.15,110__silu_sigmoid__",
      "alpha" : 1,
      "operation" : 1,
      "weights" : {

      },
      "fused_relu" : 0,
      "debug_info" : "110",
      "top" : "110",
      "type" : "elementwise",
      "name" : "110",
      "beta" : 0
    },
    {
      "pad_r" : 1,
      "fused_relu" : 0,
      "fused_tanh" : 0,
      "debug_info" : "input.17",
      "pad_fill_mode" : 0,
      "pad_b" : 1,
      "pad_l" : 1,
      "top" : "input.17",
      "K" : 16,
      "blob_biases" : 17,
      "name" : "input.17",
      "has_batch_norm" : 0,
      "type" : "convolution",
      "n_groups" : 1,
      "pad_t" : 1,
      "has_biases" : 1,
      "C" : 16,
      "bottom" : "110",
      "weights" : {

      },
      "Nx" : 3,
      "pad_mode" : 0,
      "pad_value" : 0,
      "Ny" : 3,
      "n_parallel" : 1,
      "blob_weights_f16" : 19
    },
    {
      "bottom" : "input.17",
      "weights" : {

      },
      "mode" : 3,
      "debug_info" : "119__silu_sigmoid__",
      "top" : "119__silu_sigmoid__",
      "type" : "activation",
      "name" : "119__silu_sigmoid__"
    },
    {
      "bottom" : "input.17,119__silu_sigmoid__",
      "alpha" : 1,
      "operation" : 1,
      "weights" : {

      },
      "fused_relu" : 0,
      "debug_info" : "119",
      "top" : "119",
      "type" : "elementwise",
      "name" : "119",
      "beta" : 0
    },
    {
      "bottom" : "98,119",
      "alpha" : 1,
      "operation" : 0,
      "weights" : {

      },
      "fused_relu" : 0,
      "debug_info" : "120",
      "top" : "120",
      "type" : "elementwise",
      "name" : "120",
      "beta" : 0
    },
    {
      "pad_r" : 0,
      "fused_relu" : 0,
      "fused_tanh" : 0,
      "debug_info" : "input.11",
      "pad_fill_mode" : 0,
      "pad_b" : 0,
      "pad_l" : 0,
      "top" : "input.11",
      "K" : 32,
      "blob_biases" : 21,
      "name" : "input.11",
      "has_batch_norm" : 0,
      "type" : "convolution",
      "n_groups" : 1,
      "pad_t" : 0,
      "has_biases" : 1,
      "C" : 16,
      "bottom" : "85",
      "weights" : {

      },
      "Nx" : 1,
      "pad_mode" : 0,
      "pad_value" : 0,
      "Ny" : 1,
      "n_parallel" : 1,
      "blob_weights_f16" : 23
    },
    {
      "bottom" : "input.11",
      "weights" : {

      },
      "mode" : 3,
      "debug_info" : "129__silu_sigmoid__",
      "top" : "129__silu_sigmoid__",
      "type" : "activation",
      "name" : "129__silu_sigmoid__"
    },
    {
      "bottom" : "input.11,129__silu_sigmoid__",
      "alpha" : 1,
      "operation" : 1,
      "weights" : {

      },
      "fused_relu" : 0,
      "debug_info" : "129",
      "top" : "129",
      "type" : "elementwise",
      "name" : "129",
      "beta" : 0
    },
    {
      "weights" : {

      },
      "debug_info" : "input.21",
      "top" : "input.21",
      "type" : "concat",
      "name" : "input.21",
      "bottom" : "120,129"
    },
    {
      "pad_r" : 0,
      "fused_relu" : 0,
      "fused_tanh" : 0,
      "debug_info" : "input0.2",
      "pad_fill_mode" : 0,
      "pad_b" : 0,
      "pad_l" : 0,
      "top" : "input0.2",
      "K" : 32,
      "blob_biases" : 25,
      "name" : "input0.2",
      "has_batch_norm" : 0,
      "type" : "convolution",
      "n_groups" : 1,
      "pad_t" : 0,
      "has_biases" : 1,
      "C" : 32,
      "bottom" : "input.21",
      "weights" : {

      },
      "Nx" : 1,
      "pad_mode" : 0,
      "pad_value" : 0,
      "Ny" : 1,
      "n_parallel" : 1,
      "blob_weights_f16" : 27
    },
    {
      "bottom" : "input0.2",
      "weights" : {

      },
      "mode" : 3,
      "debug_info" : "140__silu_sigmoid__",
      "top" : "140__silu_sigmoid__",
      "type" : "activation",
      "name" : "140__silu_sigmoid__"
    },
    {
      "bottom" : "input0.2,140__silu_sigmoid__",
      "alpha" : 1,
      "operation" : 1,
      "weights" : {

      },
      "fused_relu" : 0,
      "debug_info" : "140",
      "top" : "140",
      "type" : "elementwise",
      "name" : "140",
      "beta" : 0
    },
    {
      "pad_r" : 1,
      "fused_relu" : 0,
      "fused_tanh" : 0,
      "debug_info" : "input.19",
      "pad_fill_mode" : 0,
      "pad_b" : 1,
      "pad_l" : 1,
      "top" : "input.19",
      "K" : 32,
      "blob_biases" : 29,
      "stride_x" : 2,
      "name" : "input.19",
      "has_batch_norm" : 0,
      "type" : "convolution",
      "n_groups" : 1,
      "pad_t" : 1,
      "stride_y" : 2,
      "has_biases" : 1,
      "C" : 64,
      "bottom" : "140",
      "weights" : {

      },
      "Nx" : 3,
      "pad_mode" : 0,
      "pad_value" : 0,
      "Ny" : 3,
      "n_parallel" : 1,
      "blob_weights_f16" : 31
    },
    {
      "bottom" : "input.19",
      "weights" : {

      },
      "mode" : 3,
      "debug_info" : "149__silu_sigmoid__",
      "top" : "149__silu_sigmoid__",
      "type" : "activation",
      "name" : "149__silu_sigmoid__"
    },
    {
      "bottom" : "input.19,149__silu_sigmoid__",
      "alpha" : 1,
      "operation" : 1,
      "weights" : {

      },
      "fused_relu" : 0,
      "debug_info" : "149",
      "top" : "149",
      "type" : "elementwise",
      "name" : "149",
      "beta" : 0
    },
    {
      "pad_r" : 0,
      "fused_relu" : 0,
      "fused_tanh" : 0,
      "debug_info" : "input.25",
      "pad_fill_mode" : 0,
      "pad_b" : 0,
      "pad_l" : 0,
      "top" : "input.25",
      "K" : 64,
      "blob_biases" : 33,
      "name" : "input.25",
      "has_batch_norm" : 0,
      "type" : "convolution",
      "n_groups" : 1,
      "pad_t" : 0,
      "has_biases" : 1,
      "C" : 32,
      "bottom" : "149",
      "weights" : {

      },
      "Nx" : 1,
      "pad_mode" : 0,
      "pad_value" : 0,
      "Ny" : 1,
      "n_parallel" : 1,
      "blob_weights_f16" : 35
    },
    {
      "bottom" : "input.25",
      "weights" : {

      },
      "mode" : 3,
      "debug_info" : "162__silu_sigmoid__",
      "top" : "162__silu_sigmoid__",
      "type" : "activation",
      "name" : "162__silu_sigmoid__"
    },
    {
      "bottom" : "input.25,162__silu_sigmoid__",
      "alpha" : 1,
      "operation" : 1,
      "weights" : {

      },
      "fused_relu" : 0,
      "debug_info" : "162",
      "top" : "162",
      "type" : "elementwise",
      "name" : "162",
      "beta" : 0
    },
    {
      "pad_r" : 0,
      "fused_relu" : 0,
      "fused_tanh" : 0,
      "debug_info" : "input.27",
      "pad_fill_mode" : 0,
      "pad_b" : 0,
      "pad_l" : 0,
      "top" : "input.27",
      "K" : 32,
      "blob_biases" : 37,
      "name" : "input.27",
      "has_batch_norm" : 0,
      "type" : "convolution",
      "n_groups" : 1,
      "pad_t" : 0,
      "has_biases" : 1,
      "C" : 32,
      "bottom" : "162",
      "weights" : {

      },
      "Nx" : 1,
      "pad_mode" : 0,
      "pad_value" : 0,
      "Ny" : 1,
      "n_parallel" : 1,
      "blob_weights_f16" : 39
    },
    {
      "bottom" : "input.27",
      "weights" : {

      },
      "mode" : 3,
      "debug_info" : "175__silu_sigmoid__",
      "top" : "175__silu_sigmoid__",
      "type" : "activation",
      "name" : "175__silu_sigmoid__"
    },
    {
      "bottom" : "input.27,175__silu_sigmoid__",
      "alpha" : 1,
      "operation" : 1,
      "weights" : {

      },
      "fused_relu" : 0,
      "debug_info" : "175",
      "top" : "175",
      "type" : "elementwise",
      "name" : "175",
      "beta" : 0
    },
    {
      "pad_r" : 1,
      "fused_relu" : 0,
      "fused_tanh" : 0,
      "debug_info" : "input.29",
      "pad_fill_mode" : 0,
      "pad_b" : 1,
      "pad_l" : 1,
      "top" : "input.29",
      "K" : 32,
      "blob_biases" : 41,
      "name" : "input.29",
      "has_batch_norm" : 0,
      "type" : "convolution",
      "n_groups" : 1,
      "pad_t" : 1,
      "has_biases" : 1,
      "C" : 32,
      "bottom" : "175",
      "weights" : {

      },
      "Nx" : 3,
      "pad_mode" : 0,
      "pad_value" : 0,
      "Ny" : 3,
      "n_parallel" : 1,
      "blob_weights_f16" : 43
    },
    {
      "bottom" : "input.29",
      "weights" : {

      },
      "mode" : 3,
      "debug_info" : "184__silu_sigmoid__",
      "top" : "184__silu_sigmoid__",
      "type" : "activation",
      "name" : "184__silu_sigmoid__"
    },
    {
      "bottom" : "input.29,184__silu_sigmoid__",
      "alpha" : 1,
      "operation" : 1,
      "weights" : {

      },
      "fused_relu" : 0,
      "debug_info" : "184",
      "top" : "184",
      "type" : "elementwise",
      "name" : "184",
      "beta" : 0
    },
    {
      "bottom" : "162,184",
      "alpha" : 1,
      "operation" : 0,
      "weights" : {

      },
      "fused_relu" : 0,
      "debug_info" : "185",
      "top" : "185",
      "type" : "elementwise",
      "name" : "185",
      "beta" : 0
    },
    {
      "pad_r" : 0,
      "fused_relu" : 0,
      "fused_tanh" : 0,
      "debug_info" : "input.35",
      "pad_fill_mode" : 0,
      "pad_b" : 0,
      "pad_l" : 0,
      "top" : "input.35",
      "K" : 32,
      "blob_biases" : 45,
      "name" : "input.35",
      "has_batch_norm" : 0,
      "type" : "convolution",
      "n_groups" : 1,
      "pad_t" : 0,
      "has_biases" : 1,
      "C" : 32,
      "bottom" : "185",
      "weights" : {

      },
      "Nx" : 1,
      "pad_mode" : 0,
      "pad_value" : 0,
      "Ny" : 1,
      "n_parallel" : 1,
      "blob_weights_f16" : 47
    },
    {
      "bottom" : "input.35",
      "weights" : {

      },
      "mode" : 3,
      "debug_info" : "196__silu_sigmoid__",
      "top" : "196__silu_sigmoid__",
      "type" : "activation",
      "name" : "196__silu_sigmoid__"
    },
    {
      "bottom" : "input.35,196__silu_sigmoid__",
      "alpha" : 1,
      "operation" : 1,
      "weights" : {

      },
      "fused_relu" : 0,
      "debug_info" : "196",
      "top" : "196",
      "type" : "elementwise",
      "name" : "196",
      "beta" : 0
    },
    {
      "pad_r" : 1,
      "fused_relu" : 0,
      "fused_tanh" : 0,
      "debug_info" : "input.37",
      "pad_fill_mode" : 0,
      "pad_b" : 1,
      "pad_l" : 1,
      "top" : "input.37",
      "K" : 32,
      "blob_biases" : 49,
      "name" : "input.37",
      "has_batch_norm" : 0,
      "type" : "convolution",
      "n_groups" : 1,
      "pad_t" : 1,
      "has_biases" : 1,
      "C" : 32,
      "bottom" : "196",
      "weights" : {

      },
      "Nx" : 3,
      "pad_mode" : 0,
      "pad_value" : 0,
      "Ny" : 3,
      "n_parallel" : 1,
      "blob_weights_f16" : 51
    },
    {
      "bottom" : "input.37",
      "weights" : {

      },
      "mode" : 3,
      "debug_info" : "205__silu_sigmoid__",
      "top" : "205__silu_sigmoid__",
      "type" : "activation",
      "name" : "205__silu_sigmoid__"
    },
    {
      "bottom" : "input.37,205__silu_sigmoid__",
      "alpha" : 1,
      "operation" : 1,
      "weights" : {

      },
      "fused_relu" : 0,
      "debug_info" : "205",
      "top" : "205",
      "type" : "elementwise",
      "name" : "205",
      "beta" : 0
    },
    {
      "bottom" : "185,205",
      "alpha" : 1,
      "operation" : 0,
      "weights" : {

      },
      "fused_relu" : 0,
      "debug_info" : "206",
      "top" : "206",
      "type" : "elementwise",
      "name" : "206",
      "beta" : 0
    },
    {
      "pad_r" : 0,
      "fused_relu" : 0,
      "fused_tanh" : 0,
      "debug_info" : "input.23",
      "pad_fill_mode" : 0,
      "pad_b" : 0,
      "pad_l" : 0,
      "top" : "input.23",
      "K" : 64,
      "blob_biases" : 53,
      "name" : "input.23",
      "has_batch_norm" : 0,
      "type" : "convolution",
      "n_groups" : 1,
      "pad_t" : 0,
      "has_biases" : 1,
      "C" : 32,
      "bottom" : "149",
      "weights" : {

      },
      "Nx" : 1,
      "pad_mode" : 0,
      "pad_value" : 0,
      "Ny" : 1,
      "n_parallel" : 1,
      "blob_weights_f16" : 55
    },
    {
      "bottom" : "input.23",
      "weights" : {

      },
      "mode" : 3,
      "debug_info" : "215__silu_sigmoid__",
      "top" : "215__silu_sigmoid__",
      "type" : "activation",
      "name" : "215__silu_sigmoid__"
    },
    {
      "bottom" : "input.23,215__silu_sigmoid__",
      "alpha" : 1,
      "operation" : 1,
      "weights" : {

      },
      "fused_relu" : 0,
      "debug_info" : "215",
      "top" : "215",
      "type" : "elementwise",
      "name" : "215",
      "beta" : 0
    },
    {
      "weights" : {

      },
      "debug_info" : "input.41",
      "top" : "input.41",
      "type" : "concat",
      "name" : "input.41",
      "bottom" : "206,215"
    },
    {
      "pad_r" : 0,
      "fused_relu" : 0,
      "fused_tanh" : 0,
      "debug_info" : "input0.4",
      "pad_fill_mode" : 0,
      "pad_b" : 0,
      "pad_l" : 0,
      "top" : "input0.4",
      "K" : 64,
      "blob_biases" : 57,
      "name" : "input0.4",
      "has_batch_norm" : 0,
      "type" : "convolution",
      "n_groups" : 1,
      "pad_t" : 0,
      "has_biases" : 1,
      "C" : 64,
      "bottom" : "input.41",
      "weights" : {

      },
      "Nx" : 1,
      "pad_mode" : 0,
      "pad_value" : 0,
      "Ny" : 1,
      "n_parallel" : 1,
      "blob_weights_f16" : 59
    },
    {
      "bottom" : "input0.4",
      "weights" : {

      },
      "mode" : 3,
      "debug_info" : "226__silu_sigmoid__",
      "top" : "226__silu_sigmoid__",
      "type" : "activation",
      "name" : "226__silu_sigmoid__"
    },
    {
      "bottom" : "input0.4,226__silu_sigmoid__",
      "alpha" : 1,
      "operation" : 1,
      "weights" : {

      },
      "fused_relu" : 0,
      "debug_info" : "226",
      "top" : "226",
      "type" : "elementwise",
      "name" : "226",
      "beta" : 0
    },
    {
      "pad_r" : 1,
      "fused_relu" : 0,
      "fused_tanh" : 0,
      "debug_info" : "input.39",
      "pad_fill_mode" : 0,
      "pad_b" : 1,
      "pad_l" : 1,
      "top" : "input.39",
      "K" : 64,
      "blob_biases" : 61,
      "stride_x" : 2,
      "name" : "input.39",
      "has_batch_norm" : 0,
      "type" : "convolution",
      "n_groups" : 1,
      "pad_t" : 1,
      "stride_y" : 2,
      "has_biases" : 1,
      "C" : 128,
      "bottom" : "226",
      "weights" : {

      },
      "Nx" : 3,
      "pad_mode" : 0,
      "pad_value" : 0,
      "Ny" : 3,
      "n_parallel" : 1,
      "blob_weights_f16" : 63
    },
    {
      "bottom" : "input.39",
      "weights" : {

      },
      "mode" : 3,
      "debug_info" : "235__silu_sigmoid__",
      "top" : "235__silu_sigmoid__",
      "type" : "activation",
      "name" : "235__silu_sigmoid__"
    },
    {
      "bottom" : "input.39,235__silu_sigmoid__",
      "alpha" : 1,
      "operation" : 1,
      "weights" : {

      },
      "fused_relu" : 0,
      "debug_info" : "235",
      "top" : "235",
      "type" : "elementwise",
      "name" : "235",
      "beta" : 0
    },
    {
      "pad_r" : 0,
      "fused_relu" : 0,
      "fused_tanh" : 0,
      "debug_info" : "input.45",
      "pad_fill_mode" : 0,
      "pad_b" : 0,
      "pad_l" : 0,
      "top" : "input.45",
      "K" : 128,
      "blob_biases" : 65,
      "name" : "input.45",
      "has_batch_norm" : 0,
      "type" : "convolution",
      "n_groups" : 1,
      "pad_t" : 0,
      "has_biases" : 1,
      "C" : 64,
      "bottom" : "235",
      "weights" : {

      },
      "Nx" : 1,
      "pad_mode" : 0,
      "pad_value" : 0,
      "Ny" : 1,
      "n_parallel" : 1,
      "blob_weights_f16" : 67
    },
    {
      "bottom" : "input.45",
      "weights" : {

      },
      "mode" : 3,
      "debug_info" : "248__silu_sigmoid__",
      "top" : "248__silu_sigmoid__",
      "type" : "activation",
      "name" : "248__silu_sigmoid__"
    },
    {
      "bottom" : "input.45,248__silu_sigmoid__",
      "alpha" : 1,
      "operation" : 1,
      "weights" : {

      },
      "fused_relu" : 0,
      "debug_info" : "248",
      "top" : "248",
      "type" : "elementwise",
      "name" : "248",
      "beta" : 0
    },
    {
      "pad_r" : 0,
      "fused_relu" : 0,
      "fused_tanh" : 0,
      "debug_info" : "input.3",
      "pad_fill_mode" : 0,
      "pad_b" : 0,
      "pad_l" : 0,
      "top" : "input.3",
      "K" : 64,
      "blob_biases" : 69,
      "name" : "input.3",
      "has_batch_norm" : 0,
      "type" : "convolution",
      "n_groups" : 1,
      "pad_t" : 0,
      "has_biases" : 1,
      "C" : 64,
      "bottom" : "248",
      "weights" : {

      },
      "Nx" : 1,
      "pad_mode" : 0,
      "pad_value" : 0,
      "Ny" : 1,
      "n_parallel" : 1,
      "blob_weights_f16" : 71
    },
    {
      "bottom" : "input.3",
      "weights" : {

      },
      "mode" : 3,
      "debug_info" : "262__silu_sigmoid__",
      "top" : "262__silu_sigmoid__",
      "type" : "activation",
      "name" : "262__silu_sigmoid__"
    },
    {
      "bottom" : "input.3,262__silu_sigmoid__",
      "alpha" : 1,
      "operation" : 1,
      "weights" : {

      },
      "fused_relu" : 0,
      "debug_info" : "262",
      "top" : "262",
      "type" : "elementwise",
      "name" : "262",
      "beta" : 0
    },
    {
      "pad_r" : 1,
      "fused_relu" : 0,
      "fused_tanh" : 0,
      "debug_info" : "input.5",
      "pad_fill_mode" : 0,
      "pad_b" : 1,
      "pad_l" : 1,
      "top" : "input.5",
      "K" : 64,
      "blob_biases" : 73,
      "name" : "input.5",
      "has_batch_norm" : 0,
      "type" : "convolution",
      "n_groups" : 1,
      "pad_t" : 1,
      "has_biases" : 1,
      "C" : 64,
      "bottom" : "262",
      "weights" : {

      },
      "Nx" : 3,
      "pad_mode" : 0,
      "pad_value" : 0,
      "Ny" : 3,
      "n_parallel" : 1,
      "blob_weights_f16" : 75
    },
    {
      "bottom" : "input.5",
      "weights" : {

      },
      "mode" : 3,
      "debug_info" : "271__silu_sigmoid__",
      "top" : "271__silu_sigmoid__",
      "type" : "activation",
      "name" : "271__silu_sigmoid__"
    },
    {
      "bottom" : "input.5,271__silu_sigmoid__",
      "alpha" : 1,
      "operation" : 1,
      "weights" : {

      },
      "fused_relu" : 0,
      "debug_info" : "271",
      "top" : "271",
      "type" : "elementwise",
      "name" : "271",
      "beta" : 0
    },
    {
      "bottom" : "248,271",
      "alpha" : 1,
      "operation" : 0,
      "weights" : {

      },
      "fused_relu" : 0,
      "debug_info" : "272",
      "top" : "272",
      "type" : "elementwise",
      "name" : "272",
      "beta" : 0
    },
    {
      "pad_r" : 0,
      "fused_relu" : 0,
      "fused_tanh" : 0,
      "debug_info" : "input.7",
      "pad_fill_mode" : 0,
      "pad_b" : 0,
      "pad_l" : 0,
      "top" : "input.7",
      "K" : 64,
      "blob_biases" : 77,
      "name" : "input.7",
      "has_batch_norm" : 0,
      "type" : "convolution",
      "n_groups" : 1,
      "pad_t" : 0,
      "has_biases" : 1,
      "C" : 64,
      "bottom" : "272",
      "weights" : {

      },
      "Nx" : 1,
      "pad_mode" : 0,
      "pad_value" : 0,
      "Ny" : 1,
      "n_parallel" : 1,
      "blob_weights_f16" : 79
    },
    {
      "bottom" : "input.7",
      "weights" : {

      },
      "mode" : 3,
      "debug_info" : "283__silu_sigmoid__",
      "top" : "283__silu_sigmoid__",
      "type" : "activation",
      "name" : "283__silu_sigmoid__"
    },
    {
      "bottom" : "input.7,283__silu_sigmoid__",
      "alpha" : 1,
      "operation" : 1,
      "weights" : {

      },
      "fused_relu" : 0,
      "debug_info" : "283",
      "top" : "283",
      "type" : "elementwise",
      "name" : "283",
      "beta" : 0
    },
    {
      "pad_r" : 1,
      "fused_relu" : 0,
      "fused_tanh" : 0,
      "debug_info" : "input.9",
      "pad_fill_mode" : 0,
      "pad_b" : 1,
      "pad_l" : 1,
      "top" : "input.9",
      "K" : 64,
      "blob_biases" : 81,
      "name" : "input.9",
      "has_batch_norm" : 0,
      "type" : "convolution",
      "n_groups" : 1,
      "pad_t" : 1,
      "has_biases" : 1,
      "C" : 64,
      "bottom" : "283",
      "weights" : {

      },
      "Nx" : 3,
      "pad_mode" : 0,
      "pad_value" : 0,
      "Ny" : 3,
      "n_parallel" : 1,
      "blob_weights_f16" : 83
    },
    {
      "bottom" : "input.9",
      "weights" : {

      },
      "mode" : 3,
      "debug_info" : "292__silu_sigmoid__",
      "top" : "292__silu_sigmoid__",
      "type" : "activation",
      "name" : "292__silu_sigmoid__"
    },
    {
      "bottom" : "input.9,292__silu_sigmoid__",
      "alpha" : 1,
      "operation" : 1,
      "weights" : {

      },
      "fused_relu" : 0,
      "debug_info" : "292",
      "top" : "292",
      "type" : "elementwise",
      "name" : "292",
      "beta" : 0
    },
    {
      "bottom" : "272,292",
      "alpha" : 1,
      "operation" : 0,
      "weights" : {

      },
      "fused_relu" : 0,
      "debug_info" : "293",
      "top" : "293",
      "type" : "elementwise",
      "name" : "293",
      "beta" : 0
    },
    {
      "pad_r" : 0,
      "fused_relu" : 0,
      "fused_tanh" : 0,
      "debug_info" : "input.47",
      "pad_fill_mode" : 0,
      "pad_b" : 0,
      "pad_l" : 0,
      "top" : "input.47",
      "K" : 64,
      "blob_biases" : 85,
      "name" : "input.47",
      "has_batch_norm" : 0,
      "type" : "convolution",
      "n_groups" : 1,
      "pad_t" : 0,
      "has_biases" : 1,
      "C" : 64,
      "bottom" : "293",
      "weights" : {

      },
      "Nx" : 1,
      "pad_mode" : 0,
      "pad_value" : 0,
      "Ny" : 1,
      "n_parallel" : 1,
      "blob_weights_f16" : 87
    },
    {
      "bottom" : "input.47",
      "weights" : {

      },
      "mode" : 3,
      "debug_info" : "304__silu_sigmoid__",
      "top" : "304__silu_sigmoid__",
      "type" : "activation",
      "name" : "304__silu_sigmoid__"
    },
    {
      "bottom" : "input.47,304__silu_sigmoid__",
      "alpha" : 1,
      "operation" : 1,
      "weights" : {

      },
      "fused_relu" : 0,
      "debug_info" : "304",
      "top" : "304",
      "type" : "elementwise",
      "name" : "304",
      "beta" : 0
    },
    {
      "pad_r" : 1,
      "fused_relu" : 0,
      "fused_tanh" : 0,
      "debug_info" : "input.49",
      "pad_fill_mode" : 0,
      "pad_b" : 1,
      "pad_l" : 1,
      "top" : "input.49",
      "K" : 64,
      "blob_biases" : 89,
      "name" : "input.49",
      "has_batch_norm" : 0,
      "type" : "convolution",
      "n_groups" : 1,
      "pad_t" : 1,
      "has_biases" : 1,
      "C" : 64,
      "bottom" : "304",
      "weights" : {

      },
      "Nx" : 3,
      "pad_mode" : 0,
      "pad_value" : 0,
      "Ny" : 3,
      "n_parallel" : 1,
      "blob_weights_f16" : 91
    },
    {
      "bottom" : "input.49",
      "weights" : {

      },
      "mode" : 3,
      "debug_info" : "313__silu_sigmoid__",
      "top" : "313__silu_sigmoid__",
      "type" : "activation",
      "name" : "313__silu_sigmoid__"
    },
    {
      "bottom" : "input.49,313__silu_sigmoid__",
      "alpha" : 1,
      "operation" : 1,
      "weights" : {

      },
      "fused_relu" : 0,
      "debug_info" : "313",
      "top" : "313",
      "type" : "elementwise",
      "name" : "313",
      "beta" : 0
    },
    {
      "bottom" : "293,313",
      "alpha" : 1,
      "operation" : 0,
      "weights" : {

      },
      "fused_relu" : 0,
      "debug_info" : "314",
      "top" : "314",
      "type" : "elementwise",
      "name" : "314",
      "beta" : 0
    },
    {
      "pad_r" : 0,
      "fused_relu" : 0,
      "fused_tanh" : 0,
      "debug_info" : "input.43",
      "pad_fill_mode" : 0,
      "pad_b" : 0,
      "pad_l" : 0,
      "top" : "input.43",
      "K" : 128,
      "blob_biases" : 93,
      "name" : "input.43",
      "has_batch_norm" : 0,
      "type" : "convolution",
      "n_groups" : 1,
      "pad_t" : 0,
      "has_biases" : 1,
      "C" : 64,
      "bottom" : "235",
      "weights" : {

      },
      "Nx" : 1,
      "pad_mode" : 0,
      "pad_value" : 0,
      "Ny" : 1,
      "n_parallel" : 1,
      "blob_weights_f16" : 95
    },
    {
      "bottom" : "input.43",
      "weights" : {

      },
      "mode" : 3,
      "debug_info" : "323__silu_sigmoid__",
      "top" : "323__silu_sigmoid__",
      "type" : "activation",
      "name" : "323__silu_sigmoid__"
    },
    {
      "bottom" : "input.43,323__silu_sigmoid__",
      "alpha" : 1,
      "operation" : 1,
      "weights" : {

      },
      "fused_relu" : 0,
      "debug_info" : "323",
      "top" : "323",
      "type" : "elementwise",
      "name" : "323",
      "beta" : 0
    },
    {
      "weights" : {

      },
      "debug_info" : "input.53",
      "top" : "input.53",
      "type" : "concat",
      "name" : "input.53",
      "bottom" : "314,323"
    },
    {
      "pad_r" : 0,
      "fused_relu" : 0,
      "fused_tanh" : 0,
      "debug_info" : "input0.6",
      "pad_fill_mode" : 0,
      "pad_b" : 0,
      "pad_l" : 0,
      "top" : "input0.6",
      "K" : 128,
      "blob_biases" : 97,
      "name" : "input0.6",
      "has_batch_norm" : 0,
      "type" : "convolution",
      "n_groups" : 1,
      "pad_t" : 0,
      "has_biases" : 1,
      "C" : 128,
      "bottom" : "input.53",
      "weights" : {

      },
      "Nx" : 1,
      "pad_mode" : 0,
      "pad_value" : 0,
      "Ny" : 1,
      "n_parallel" : 1,
      "blob_weights_f16" : 99
    },
    {
      "bottom" : "input0.6",
      "weights" : {

      },
      "mode" : 3,
      "debug_info" : "334__silu_sigmoid__",
      "top" : "334__silu_sigmoid__",
      "type" : "activation",
      "name" : "334__silu_sigmoid__"
    },
    {
      "bottom" : "input0.6,334__silu_sigmoid__",
      "alpha" : 1,
      "operation" : 1,
      "weights" : {

      },
      "fused_relu" : 0,
      "debug_info" : "334",
      "top" : "334",
      "type" : "elementwise",
      "name" : "334",
      "beta" : 0
    },
    {
      "pad_r" : 1,
      "fused_relu" : 0,
      "fused_tanh" : 0,
      "debug_info" : "input.51",
      "pad_fill_mode" : 0,
      "pad_b" : 1,
      "pad_l" : 1,
      "top" : "input.51",
      "K" : 128,
      "blob_biases" : 101,
      "stride_x" : 2,
      "name" : "input.51",
      "has_batch_norm" : 0,
      "type" : "convolution",
      "n_groups" : 1,
      "pad_t" : 1,
      "stride_y" : 2,
      "has_biases" : 1,
      "C" : 256,
      "bottom" : "334",
      "weights" : {

      },
      "Nx" : 3,
      "pad_mode" : 0,
      "pad_value" : 0,
      "Ny" : 3,
      "n_parallel" : 1,
      "blob_weights_f16" : 103
    },
    {
      "bottom" : "input.51",
      "weights" : {

      },
      "mode" : 3,
      "debug_info" : "343__silu_sigmoid__",
      "top" : "343__silu_sigmoid__",
      "type" : "activation",
      "name" : "343__silu_sigmoid__"
    },
    {
      "bottom" : "input.51,343__silu_sigmoid__",
      "alpha" : 1,
      "operation" : 1,
      "weights" : {

      },
      "fused_relu" : 0,
      "debug_info" : "343",
      "top" : "343",
      "type" : "elementwise",
      "name" : "343",
      "beta" : 0
    },
    {
      "pad_r" : 0,
      "fused_relu" : 0,
      "fused_tanh" : 0,
      "debug_info" : "input.57",
      "pad_fill_mode" : 0,
      "pad_b" : 0,
      "pad_l" : 0,
      "top" : "input.57",
      "K" : 256,
      "blob_biases" : 105,
      "name" : "input.57",
      "has_batch_norm" : 0,
      "type" : "convolution",
      "n_groups" : 1,
      "pad_t" : 0,
      "has_biases" : 1,
      "C" : 128,
      "bottom" : "343",
      "weights" : {

      },
      "Nx" : 1,
      "pad_mode" : 0,
      "pad_value" : 0,
      "Ny" : 1,
      "n_parallel" : 1,
      "blob_weights_f16" : 107
    },
    {
      "bottom" : "input.57",
      "weights" : {

      },
      "mode" : 3,
      "debug_info" : "356__silu_sigmoid__",
      "top" : "356__silu_sigmoid__",
      "type" : "activation",
      "name" : "356__silu_sigmoid__"
    },
    {
      "bottom" : "input.57,356__silu_sigmoid__",
      "alpha" : 1,
      "operation" : 1,
      "weights" : {

      },
      "fused_relu" : 0,
      "debug_info" : "356",
      "top" : "356",
      "type" : "elementwise",
      "name" : "356",
      "beta" : 0
    },
    {
      "pad_r" : 0,
      "fused_relu" : 0,
      "fused_tanh" : 0,
      "debug_info" : "input.61",
      "pad_fill_mode" : 0,
      "pad_b" : 0,
      "pad_l" : 0,
      "top" : "input.61",
      "K" : 128,
      "blob_biases" : 109,
      "name" : "input.61",
      "has_batch_norm" : 0,
      "type" : "convolution",
      "n_groups" : 1,
      "pad_t" : 0,
      "has_biases" : 1,
      "C" : 128,
      "bottom" : "356",
      "weights" : {

      },
      "Nx" : 1,
      "pad_mode" : 0,
      "pad_value" : 0,
      "Ny" : 1,
      "n_parallel" : 1,
      "blob_weights_f16" : 111
    },
    {
      "bottom" : "input.61",
      "weights" : {

      },
      "mode" : 3,
      "debug_info" : "368__silu_sigmoid__",
      "top" : "368__silu_sigmoid__",
      "type" : "activation",
      "name" : "368__silu_sigmoid__"
    },
    {
      "bottom" : "input.61,368__silu_sigmoid__",
      "alpha" : 1,
      "operation" : 1,
      "weights" : {

      },
      "fused_relu" : 0,
      "debug_info" : "368",
      "top" : "368",
      "type" : "elementwise",
      "name" : "368",
      "beta" : 0
    },
    {
      "pad_r" : 1,
      "fused_relu" : 0,
      "fused_tanh" : 0,
      "debug_info" : "input.71",
      "pad_fill_mode" : 0,
      "pad_b" : 1,
      "pad_l" : 1,
      "top" : "input.71",
      "K" : 128,
      "blob_biases" : 113,
      "name" : "input.71",
      "has_batch_norm" : 0,
      "type" : "convolution",
      "n_groups" : 1,
      "pad_t" : 1,
      "has_biases" : 1,
      "C" : 128,
      "bottom" : "368",
      "weights" : {

      },
      "Nx" : 3,
      "pad_mode" : 0,
      "pad_value" : 0,
      "Ny" : 3,
      "n_parallel" : 1,
      "blob_weights_f16" : 115
    },
    {
      "bottom" : "input.71",
      "weights" : {

      },
      "mode" : 3,
      "debug_info" : "377__silu_sigmoid__",
      "top" : "377__silu_sigmoid__",
      "type" : "activation",
      "name" : "377__silu_sigmoid__"
    },
    {
      "bottom" : "input.71,377__silu_sigmoid__",
      "alpha" : 1,
      "operation" : 1,
      "weights" : {

      },
      "fused_relu" : 0,
      "debug_info" : "377",
      "top" : "377",
      "type" : "elementwise",
      "name" : "377",
      "beta" : 0
    },
    {
      "bottom" : "356,377",
      "alpha" : 1,
      "operation" : 0,
      "weights" : {

      },
      "fused_relu" : 0,
      "debug_info" : "378",
      "top" : "378",
      "type" : "elementwise",
      "name" : "378",
      "beta" : 0
    },
    {
      "pad_r" : 0,
      "fused_relu" : 0,
      "fused_tanh" : 0,
      "debug_info" : "input.59",
      "pad_fill_mode" : 0,
      "pad_b" : 0,
      "pad_l" : 0,
      "top" : "input.59",
      "K" : 256,
      "blob_biases" : 117,
      "name" : "input.59",
      "has_batch_norm" : 0,
      "type" : "convolution",
      "n_groups" : 1,
      "pad_t" : 0,
      "has_biases" : 1,
      "C" : 128,
      "bottom" : "343",
      "weights" : {

      },
      "Nx" : 1,
      "pad_mode" : 0,
      "pad_value" : 0,
      "Ny" : 1,
      "n_parallel" : 1,
      "blob_weights_f16" : 119
    },
    {
      "bottom" : "input.59",
      "weights" : {

      },
      "mode" : 3,
      "debug_info" : "387__silu_sigmoid__",
      "top" : "387__silu_sigmoid__",
      "type" : "activation",
      "name" : "387__silu_sigmoid__"
    },
    {
      "bottom" : "input.59,387__silu_sigmoid__",
      "alpha" : 1,
      "operation" : 1,
      "weights" : {

      },
      "fused_relu" : 0,
      "debug_info" : "387",
      "top" : "387",
      "type" : "elementwise",
      "name" : "387",
      "beta" : 0
    },
    {
      "weights" : {

      },
      "debug_info" : "input.55",
      "top" : "input.55",
      "type" : "concat",
      "name" : "input.55",
      "bottom" : "378,387"
    },
    {
      "pad_r" : 0,
      "fused_relu" : 0,
      "fused_tanh" : 0,
      "debug_info" : "input0.8",
      "pad_fill_mode" : 0,
      "pad_b" : 0,
      "pad_l" : 0,
      "top" : "input0.8",
      "K" : 256,
      "blob_biases" : 121,
      "name" : "input0.8",
      "has_batch_norm" : 0,
      "type" : "convolution",
      "n_groups" : 1,
      "pad_t" : 0,
      "has_biases" : 1,
      "C" : 256,
      "bottom" : "input.55",
      "weights" : {

      },
      "Nx" : 1,
      "pad_mode" : 0,
      "pad_value" : 0,
      "Ny" : 1,
      "n_parallel" : 1,
      "blob_weights_f16" : 123
    },
    {
      "bottom" : "input0.8",
      "weights" : {

      },
      "mode" : 3,
      "debug_info" : "398__silu_sigmoid__",
      "top" : "398__silu_sigmoid__",
      "type" : "activation",
      "name" : "398__silu_sigmoid__"
    },
    {
      "bottom" : "input0.8,398__silu_sigmoid__",
      "alpha" : 1,
      "operation" : 1,
      "weights" : {

      },
      "fused_relu" : 0,
      "debug_info" : "398",
      "top" : "398",
      "type" : "elementwise",
      "name" : "398",
      "beta" : 0
    },
    {
      "pad_r" : 0,
      "fused_relu" : 0,
      "fused_tanh" : 0,
      "debug_info" : "input.75",
      "pad_fill_mode" : 0,
      "pad_b" : 0,
      "pad_l" : 0,
      "top" : "input.75",
      "K" : 256,
      "blob_biases" : 125,
      "name" : "input.75",
      "has_batch_norm" : 0,
      "type" : "convolution",
      "n_groups" : 1,
      "pad_t" : 0,
      "has_biases" : 1,
      "C" : 128,
      "bottom" : "398",
      "weights" : {

      },
      "Nx" : 1,
      "pad_mode" : 0,
      "pad_value" : 0,
      "Ny" : 1,
      "n_parallel" : 1,
      "blob_weights_f16" : 127
    },
    {
      "bottom" : "input.75",
      "weights" : {

      },
      "mode" : 3,
      "debug_info" : "409__silu_sigmoid__",
      "top" : "409__silu_sigmoid__",
      "type" : "activation",
      "name" : "409__silu_sigmoid__"
    },
    {
      "bottom" : "input.75,409__silu_sigmoid__",
      "alpha" : 1,
      "operation" : 1,
      "weights" : {

      },
      "fused_relu" : 0,
      "debug_info" : "409",
      "top" : "409",
      "type" : "elementwise",
      "name" : "409",
      "beta" : 0
    },
    {
      "pad_r" : 2,
      "debug_info" : "input.67",
      "pad_fill_mode" : 0,
      "pad_b" : 2,
      "pad_l" : 2,
      "size_x" : 5,
      "top" : "input.67",
      "top_shape_style" : 0,
      "stride_x" : 1,
      "avg_or_max" : 1,
      "average_count_exclude_padding" : 1,
      "type" : "pool",
      "name" : "input.67",
      "pad_t" : 2,
      "stride_y" : 1,
      "bottom" : "409",
      "weights" : {

      },
      "pad_mode" : 0,
      "size_y" : 5,
      "pad_value" : 0
    },
    {
      "pad_r" : 2,
      "debug_info" : "input.63",
      "pad_fill_mode" : 0,
      "pad_b" : 2,
      "pad_l" : 2,
      "size_x" : 5,
      "top" : "input.63",
      "top_shape_style" : 0,
      "stride_x" : 1,
      "avg_or_max" : 1,
      "average_count_exclude_padding" : 1,
      "type" : "pool",
      "name" : "input.63",
      "pad_t" : 2,
      "stride_y" : 1,
      "bottom" : "input.67",
      "weights" : {

      },
      "pad_mode" : 0,
      "size_y" : 5,
      "pad_value" : 0
    },
    {
      "pad_r" : 2,
      "debug_info" : "424",
      "pad_fill_mode" : 0,
      "pad_b" : 2,
      "pad_l" : 2,
      "size_x" : 5,
      "top" : "424",
      "top_shape_style" : 0,
      "stride_x" : 1,
      "avg_or_max" : 1,
      "average_count_exclude_padding" : 1,
      "type" : "pool",
      "name" : "424",
      "pad_t" : 2,
      "stride_y" : 1,
      "bottom" : "input.63",
      "weights" : {

      },
      "pad_mode" : 0,
      "size_y" : 5,
      "pad_value" : 0
    },
    {
      "weights" : {

      },
      "debug_info" : "input.69",
      "top" : "input.69",
      "type" : "concat",
      "name" : "input.69",
      "bottom" : "409,input.67,input.63,424"
    },
    {
      "pad_r" : 0,
      "fused_relu" : 0,
      "fused_tanh" : 0,
      "debug_info" : "input0.10",
      "pad_fill_mode" : 0,
      "pad_b" : 0,
      "pad_l" : 0,
      "top" : "input0.10",
      "K" : 512,
      "blob_biases" : 129,
      "name" : "input0.10",
      "has_batch_norm" : 0,
      "type" : "convolution",
      "n_groups" : 1,
      "pad_t" : 0,
      "has_biases" : 1,
      "C" : 256,
      "bottom" : "input.69",
      "weights" : {

      },
      "Nx" : 1,
      "pad_mode" : 0,
      "pad_value" : 0,
      "Ny" : 1,
      "n_parallel" : 1,
      "blob_weights_f16" : 131
    },
    {
      "bottom" : "input0.10",
      "weights" : {

      },
      "mode" : 3,
      "debug_info" : "435__silu_sigmoid__",
      "top" : "435__silu_sigmoid__",
      "type" : "activation",
      "name" : "435__silu_sigmoid__"
    },
    {
      "bottom" : "input0.10,435__silu_sigmoid__",
      "alpha" : 1,
      "operation" : 1,
      "weights" : {

      },
      "fused_relu" : 0,
      "debug_info" : "435",
      "top" : "435",
      "type" : "elementwise",
      "name" : "435",
      "beta" : 0
    },
    {
      "pad_r" : 0,
      "fused_relu" : 0,
      "fused_tanh" : 0,
      "debug_info" : "input.65",
      "pad_fill_mode" : 0,
      "pad_b" : 0,
      "pad_l" : 0,
      "top" : "input.65",
      "K" : 256,
      "blob_biases" : 133,
      "name" : "input.65",
      "has_batch_norm" : 0,
      "type" : "convolution",
      "n_groups" : 1,
      "pad_t" : 0,
      "has_biases" : 1,
      "C" : 128,
      "bottom" : "435",
      "weights" : {

      },
      "Nx" : 1,
      "pad_mode" : 0,
      "pad_value" : 0,
      "Ny" : 1,
      "n_parallel" : 1,
      "blob_weights_f16" : 135
    },
    {
      "bottom" : "input.65",
      "weights" : {

      },
      "mode" : 3,
      "debug_info" : "444__silu_sigmoid__",
      "top" : "444__silu_sigmoid__",
      "type" : "activation",
      "name" : "444__silu_sigmoid__"
    },
    {
      "bottom" : "input.65,444__silu_sigmoid__",
      "alpha" : 1,
      "operation" : 1,
      "weights" : {

      },
      "fused_relu" : 0,
      "debug_info" : "444",
      "top" : "444",
      "type" : "elementwise",
      "name" : "444",
      "beta" : 0
    },
    {
      "top" : "446",
      "use_fractional_scale_factors" : false,
      "weights" : {

      },
      "fractional_scaling_factor_y" : 1,
      "type" : "upsample",
      "scaling_factor_x" : 2,
      "mode" : 0,
      "align_corners" : 0,
      "bottom" : "444",
      "debug_info" : "446",
      "fractional_scaling_factor_x" : 1,
      "is_legacy_mode" : 1,
      "name" : "446",
      "scaling_factor_y" : 2
    },
    {
      "weights" : {

      },
      "debug_info" : "input.73",
      "top" : "input.73",
      "type" : "concat",
      "name" : "input.73",
      "bottom" : "446,334"
    },
    {
      "pad_r" : 0,
      "fused_relu" : 0,
      "fused_tanh" : 0,
      "debug_info" : "input.81",
      "pad_fill_mode" : 0,
      "pad_b" : 0,
      "pad_l" : 0,
      "top" : "input.81",
      "K" : 256,
      "blob_biases" : 137,
      "name" : "input.81",
      "has_batch_norm" : 0,
      "type" : "convolution",
      "n_groups" : 1,
      "pad_t" : 0,
      "has_biases" : 1,
      "C" : 64,
      "bottom" : "input.73",
      "weights" : {

      },
      "Nx" : 1,
      "pad_mode" : 0,
      "pad_value" : 0,
      "Ny" : 1,
      "n_parallel" : 1,
      "blob_weights_f16" : 139
    },
    {
      "bottom" : "input.81",
      "weights" : {

      },
      "mode" : 3,
      "debug_info" : "461__silu_sigmoid__",
      "top" : "461__silu_sigmoid__",
      "type" : "activation",
      "name" : "461__silu_sigmoid__"
    },
    {
      "bottom" : "input.81,461__silu_sigmoid__",
      "alpha" : 1,
      "operation" : 1,
      "weights" : {

      },
      "fused_relu" : 0,
      "debug_info" : "461",
      "top" : "461",
      "type" : "elementwise",
      "name" : "461",
      "beta" : 0
    },
    {
      "pad_r" : 0,
      "fused_relu" : 0,
      "fused_tanh" : 0,
      "debug_info" : "input.83",
      "pad_fill_mode" : 0,
      "pad_b" : 0,
      "pad_l" : 0,
      "top" : "input.83",
      "K" : 64,
      "blob_biases" : 141,
      "name" : "input.83",
      "has_batch_norm" : 0,
      "type" : "convolution",
      "n_groups" : 1,
      "pad_t" : 0,
      "has_biases" : 1,
      "C" : 64,
      "bottom" : "461",
      "weights" : {

      },
      "Nx" : 1,
      "pad_mode" : 0,
      "pad_value" : 0,
      "Ny" : 1,
      "n_parallel" : 1,
      "blob_weights_f16" : 143
    },
    {
      "bottom" : "input.83",
      "weights" : {

      },
      "mode" : 3,
      "debug_info" : "473__silu_sigmoid__",
      "top" : "473__silu_sigmoid__",
      "type" : "activation",
      "name" : "473__silu_sigmoid__"
    },
    {
      "bottom" : "input.83,473__silu_sigmoid__",
      "alpha" : 1,
      "operation" : 1,
      "weights" : {

      },
      "fused_relu" : 0,
      "debug_info" : "473",
      "top" : "473",
      "type" : "elementwise",
      "name" : "473",
      "beta" : 0
    },
    {
      "pad_r" : 1,
      "fused_relu" : 0,
      "fused_tanh" : 0,
      "debug_info" : "input.85",
      "pad_fill_mode" : 0,
      "pad_b" : 1,
      "pad_l" : 1,
      "top" : "input.85",
      "K" : 64,
      "blob_biases" : 145,
      "name" : "input.85",
      "has_batch_norm" : 0,
      "type" : "convolution",
      "n_groups" : 1,
      "pad_t" : 1,
      "has_biases" : 1,
      "C" : 64,
      "bottom" : "473",
      "weights" : {

      },
      "Nx" : 3,
      "pad_mode" : 0,
      "pad_value" : 0,
      "Ny" : 3,
      "n_parallel" : 1,
      "blob_weights_f16" : 147
    },
    {
      "bottom" : "input.85",
      "weights" : {

      },
      "mode" : 3,
      "debug_info" : "482__silu_sigmoid__",
      "top" : "482__silu_sigmoid__",
      "type" : "activation",
      "name" : "482__silu_sigmoid__"
    },
    {
      "bottom" : "input.85,482__silu_sigmoid__",
      "alpha" : 1,
      "operation" : 1,
      "weights" : {

      },
      "fused_relu" : 0,
      "debug_info" : "482",
      "top" : "482",
      "type" : "elementwise",
      "name" : "482",
      "beta" : 0
    },
    {
      "pad_r" : 0,
      "fused_relu" : 0,
      "fused_tanh" : 0,
      "debug_info" : "input.77",
      "pad_fill_mode" : 0,
      "pad_b" : 0,
      "pad_l" : 0,
      "top" : "input.77",
      "K" : 256,
      "blob_biases" : 149,
      "name" : "input.77",
      "has_batch_norm" : 0,
      "type" : "convolution",
      "n_groups" : 1,
      "pad_t" : 0,
      "has_biases" : 1,
      "C" : 64,
      "bottom" : "input.73",
      "weights" : {

      },
      "Nx" : 1,
      "pad_mode" : 0,
      "pad_value" : 0,
      "Ny" : 1,
      "n_parallel" : 1,
      "blob_weights_f16" : 151
    },
    {
      "bottom" : "input.77",
      "weights" : {

      },
      "mode" : 3,
      "debug_info" : "491__silu_sigmoid__",
      "top" : "491__silu_sigmoid__",
      "type" : "activation",
      "name" : "491__silu_sigmoid__"
    },
    {
      "bottom" : "input.77,491__silu_sigmoid__",
      "alpha" : 1,
      "operation" : 1,
      "weights" : {

      },
      "fused_relu" : 0,
      "debug_info" : "491",
      "top" : "491",
      "type" : "elementwise",
      "name" : "491",
      "beta" : 0
    },
    {
      "weights" : {

      },
      "debug_info" : "input.89",
      "top" : "input.89",
      "type" : "concat",
      "name" : "input.89",
      "bottom" : "482,491"
    },
    {
      "pad_r" : 0,
      "fused_relu" : 0,
      "fused_tanh" : 0,
      "debug_info" : "input0.12",
      "pad_fill_mode" : 0,
      "pad_b" : 0,
      "pad_l" : 0,
      "top" : "input0.12",
      "K" : 128,
      "blob_biases" : 153,
      "name" : "input0.12",
      "has_batch_norm" : 0,
      "type" : "convolution",
      "n_groups" : 1,
      "pad_t" : 0,
      "has_biases" : 1,
      "C" : 128,
      "bottom" : "input.89",
      "weights" : {

      },
      "Nx" : 1,
      "pad_mode" : 0,
      "pad_value" : 0,
      "Ny" : 1,
      "n_parallel" : 1,
      "blob_weights_f16" : 155
    },
    {
      "bottom" : "input0.12",
      "weights" : {

      },
      "mode" : 3,
      "debug_info" : "502__silu_sigmoid__",
      "top" : "502__silu_sigmoid__",
      "type" : "activation",
      "name" : "502__silu_sigmoid__"
    },
    {
      "bottom" : "input0.12,502__silu_sigmoid__",
      "alpha" : 1,
      "operation" : 1,
      "weights" : {

      },
      "fused_relu" : 0,
      "debug_info" : "502",
      "top" : "502",
      "type" : "elementwise",
      "name" : "502",
      "beta" : 0
    },
    {
      "pad_r" : 0,
      "fused_relu" : 0,
      "fused_tanh" : 0,
      "debug_info" : "input.79",
      "pad_fill_mode" : 0,
      "pad_b" : 0,
      "pad_l" : 0,
      "top" : "input.79",
      "K" : 128,
      "blob_biases" : 157,
      "name" : "input.79",
      "has_batch_norm" : 0,
      "type" : "convolution",
      "n_groups" : 1,
      "pad_t" : 0,
      "has_biases" : 1,
      "C" : 64,
      "bottom" : "502",
      "weights" : {

      },
      "Nx" : 1,
      "pad_mode" : 0,
      "pad_value" : 0,
      "Ny" : 1,
      "n_parallel" : 1,
      "blob_weights_f16" : 159
    },
    {
      "bottom" : "input.79",
      "weights" : {

      },
      "mode" : 3,
      "debug_info" : "511__silu_sigmoid__",
      "top" : "511__silu_sigmoid__",
      "type" : "activation",
      "name" : "511__silu_sigmoid__"
    },
    {
      "bottom" : "input.79,511__silu_sigmoid__",
      "alpha" : 1,
      "operation" : 1,
      "weights" : {

      },
      "fused_relu" : 0,
      "debug_info" : "511",
      "top" : "511",
      "type" : "elementwise",
      "name" : "511",
      "beta" : 0
    },
    {
      "top" : "513",
      "use_fractional_scale_factors" : false,
      "weights" : {

      },
      "fractional_scaling_factor_y" : 1,
      "type" : "upsample",
      "scaling_factor_x" : 2,
      "mode" : 0,
      "align_corners" : 0,
      "bottom" : "511",
      "debug_info" : "513",
      "fractional_scaling_factor_x" : 1,
      "is_legacy_mode" : 1,
      "name" : "513",
      "scaling_factor_y" : 2
    },
    {
      "weights" : {

      },
      "debug_info" : "input.87",
      "top" : "input.87",
      "type" : "concat",
      "name" : "input.87",
      "bottom" : "513,226"
    },
    {
      "pad_r" : 0,
      "fused_relu" : 0,
      "fused_tanh" : 0,
      "debug_info" : "input.95",
      "pad_fill_mode" : 0,
      "pad_b" : 0,
      "pad_l" : 0,
      "top" : "input.95",
      "K" : 128,
      "blob_biases" : 161,
      "name" : "input.95",
      "has_batch_norm" : 0,
      "type" : "convolution",
      "n_groups" : 1,
      "pad_t" : 0,
      "has_biases" : 1,
      "C" : 32,
      "bottom" : "input.87",
      "weights" : {

      },
      "Nx" : 1,
      "pad_mode" : 0,
      "pad_value" : 0,
      "Ny" : 1,
      "n_parallel" : 1,
      "blob_weights_f16" : 163
    },
    {
      "bottom" : "input.95",
      "weights" : {

      },
      "mode" : 3,
      "debug_info" : "528__silu_sigmoid__",
      "top" : "528__silu_sigmoid__",
      "type" : "activation",
      "name" : "528__silu_sigmoid__"
    },
    {
      "bottom" : "input.95,528__silu_sigmoid__",
      "alpha" : 1,
      "operation" : 1,
      "weights" : {

      },
      "fused_relu" : 0,
      "debug_info" : "528",
      "top" : "528",
      "type" : "elementwise",
      "name" : "528",
      "beta" : 0
    },
    {
      "pad_r" : 0,
      "fused_relu" : 0,
      "fused_tanh" : 0,
      "debug_info" : "input.97",
      "pad_fill_mode" : 0,
      "pad_b" : 0,
      "pad_l" : 0,
      "top" : "input.97",
      "K" : 32,
      "blob_biases" : 165,
      "name" : "input.97",
      "has_batch_norm" : 0,
      "type" : "convolution",
      "n_groups" : 1,
      "pad_t" : 0,
      "has_biases" : 1,
      "C" : 32,
      "bottom" : "528",
      "weights" : {

      },
      "Nx" : 1,
      "pad_mode" : 0,
      "pad_value" : 0,
      "Ny" : 1,
      "n_parallel" : 1,
      "blob_weights_f16" : 167
    },
    {
      "bottom" : "input.97",
      "weights" : {

      },
      "mode" : 3,
      "debug_info" : "540__silu_sigmoid__",
      "top" : "540__silu_sigmoid__",
      "type" : "activation",
      "name" : "540__silu_sigmoid__"
    },
    {
      "bottom" : "input.97,540__silu_sigmoid__",
      "alpha" : 1,
      "operation" : 1,
      "weights" : {

      },
      "fused_relu" : 0,
      "debug_info" : "540",
      "top" : "540",
      "type" : "elementwise",
      "name" : "540",
      "beta" : 0
    },
    {
      "pad_r" : 1,
      "fused_relu" : 0,
      "fused_tanh" : 0,
      "debug_info" : "input.99",
      "pad_fill_mode" : 0,
      "pad_b" : 1,
      "pad_l" : 1,
      "top" : "input.99",
      "K" : 32,
      "blob_biases" : 169,
      "name" : "input.99",
      "has_batch_norm" : 0,
      "type" : "convolution",
      "n_groups" : 1,
      "pad_t" : 1,
      "has_biases" : 1,
      "C" : 32,
      "bottom" : "540",
      "weights" : {

      },
      "Nx" : 3,
      "pad_mode" : 0,
      "pad_value" : 0,
      "Ny" : 3,
      "n_parallel" : 1,
      "blob_weights_f16" : 171
    },
    {
      "bottom" : "input.99",
      "weights" : {

      },
      "mode" : 3,
      "debug_info" : "549__silu_sigmoid__",
      "top" : "549__silu_sigmoid__",
      "type" : "activation",
      "name" : "549__silu_sigmoid__"
    },
    {
      "bottom" : "input.99,549__silu_sigmoid__",
      "alpha" : 1,
      "operation" : 1,
      "weights" : {

      },
      "fused_relu" : 0,
      "debug_info" : "549",
      "top" : "549",
      "type" : "elementwise",
      "name" : "549",
      "beta" : 0
    },
    {
      "pad_r" : 0,
      "fused_relu" : 0,
      "fused_tanh" : 0,
      "debug_info" : "input.91",
      "pad_fill_mode" : 0,
      "pad_b" : 0,
      "pad_l" : 0,
      "top" : "input.91",
      "K" : 128,
      "blob_biases" : 173,
      "name" : "input.91",
      "has_batch_norm" : 0,
      "type" : "convolution",
      "n_groups" : 1,
      "pad_t" : 0,
      "has_biases" : 1,
      "C" : 32,
      "bottom" : "input.87",
      "weights" : {

      },
      "Nx" : 1,
      "pad_mode" : 0,
      "pad_value" : 0,
      "Ny" : 1,
      "n_parallel" : 1,
      "blob_weights_f16" : 175
    },
    {
      "bottom" : "input.91",
      "weights" : {

      },
      "mode" : 3,
      "debug_info" : "558__silu_sigmoid__",
      "top" : "558__silu_sigmoid__",
      "type" : "activation",
      "name" : "558__silu_sigmoid__"
    },
    {
      "bottom" : "input.91,558__silu_sigmoid__",
      "alpha" : 1,
      "operation" : 1,
      "weights" : {

      },
      "fused_relu" : 0,
      "debug_info" : "558",
      "top" : "558",
      "type" : "elementwise",
      "name" : "558",
      "beta" : 0
    },
    {
      "weights" : {

      },
      "debug_info" : "input.103",
      "top" : "input.103",
      "type" : "concat",
      "name" : "input.103",
      "bottom" : "549,558"
    },
    {
      "pad_r" : 0,
      "fused_relu" : 0,
      "fused_tanh" : 0,
      "debug_info" : "input0.14",
      "pad_fill_mode" : 0,
      "pad_b" : 0,
      "pad_l" : 0,
      "top" : "input0.14",
      "K" : 64,
      "blob_biases" : 177,
      "name" : "input0.14",
      "has_batch_norm" : 0,
      "type" : "convolution",
      "n_groups" : 1,
      "pad_t" : 0,
      "has_biases" : 1,
      "C" : 64,
      "bottom" : "input.103",
      "weights" : {

      },
      "Nx" : 1,
      "pad_mode" : 0,
      "pad_value" : 0,
      "Ny" : 1,
      "n_parallel" : 1,
      "blob_weights_f16" : 179
    },
    {
      "bottom" : "input0.14",
      "weights" : {

      },
      "mode" : 3,
      "debug_info" : "569__silu_sigmoid__",
      "top" : "569__silu_sigmoid__",
      "type" : "activation",
      "name" : "569__silu_sigmoid__"
    },
    {
      "bottom" : "input0.14,569__silu_sigmoid__",
      "alpha" : 1,
      "operation" : 1,
      "weights" : {

      },
      "fused_relu" : 0,
      "debug_info" : "569",
      "top" : "569",
      "type" : "elementwise",
      "name" : "569",
      "beta" : 0
    },
    {
      "pad_r" : 1,
      "fused_relu" : 0,
      "fused_tanh" : 0,
      "debug_info" : "input.93",
      "pad_fill_mode" : 0,
      "pad_b" : 1,
      "pad_l" : 1,
      "top" : "input.93",
      "K" : 64,
      "blob_biases" : 181,
      "stride_x" : 2,
      "name" : "input.93",
      "has_batch_norm" : 0,
      "type" : "convolution",
      "n_groups" : 1,
      "pad_t" : 1,
      "stride_y" : 2,
      "has_biases" : 1,
      "C" : 64,
      "bottom" : "569",
      "weights" : {

      },
      "Nx" : 3,
      "pad_mode" : 0,
      "pad_value" : 0,
      "Ny" : 3,
      "n_parallel" : 1,
      "blob_weights_f16" : 183
    },
    {
      "bottom" : "input.93",
      "weights" : {

      },
      "mode" : 3,
      "debug_info" : "578__silu_sigmoid__",
      "top" : "578__silu_sigmoid__",
      "type" : "activation",
      "name" : "578__silu_sigmoid__"
    },
    {
      "bottom" : "input.93,578__silu_sigmoid__",
      "alpha" : 1,
      "operation" : 1,
      "weights" : {

      },
      "fused_relu" : 0,
      "debug_info" : "578",
      "top" : "578",
      "type" : "elementwise",
      "name" : "578",
      "beta" : 0
    },
    {
      "weights" : {

      },
      "debug_info" : "input.101",
      "top" : "input.101",
      "type" : "concat",
      "name" : "input.101",
      "bottom" : "578,511"
    },
    {
      "pad_r" : 0,
      "fused_relu" : 0,
      "fused_tanh" : 0,
      "debug_info" : "input.109",
      "pad_fill_mode" : 0,
      "pad_b" : 0,
      "pad_l" : 0,
      "top" : "input.109",
      "K" : 128,
      "blob_biases" : 185,
      "name" : "input.109",
      "has_batch_norm" : 0,
      "type" : "convolution",
      "n_groups" : 1,
      "pad_t" : 0,
      "has_biases" : 1,
      "C" : 64,
      "bottom" : "input.101",
      "weights" : {

      },
      "Nx" : 1,
      "pad_mode" : 0,
      "pad_value" : 0,
      "Ny" : 1,
      "n_parallel" : 1,
      "blob_weights_f16" : 187
    },
    {
      "bottom" : "input.109",
      "weights" : {

      },
      "mode" : 3,
      "debug_info" : "593__silu_sigmoid__",
      "top" : "593__silu_sigmoid__",
      "type" : "activation",
      "name" : "593__silu_sigmoid__"
    },
    {
      "bottom" : "input.109,593__silu_sigmoid__",
      "alpha" : 1,
      "operation" : 1,
      "weights" : {

      },
      "fused_relu" : 0,
      "debug_info" : "593",
      "top" : "593",
      "type" : "elementwise",
      "name" : "593",
      "beta" : 0
    },
    {
      "pad_r" : 0,
      "fused_relu" : 0,
      "fused_tanh" : 0,
      "debug_info" : "input.111",
      "pad_fill_mode" : 0,
      "pad_b" : 0,
      "pad_l" : 0,
      "top" : "input.111",
      "K" : 64,
      "blob_biases" : 189,
      "name" : "input.111",
      "has_batch_norm" : 0,
      "type" : "convolution",
      "n_groups" : 1,
      "pad_t" : 0,
      "has_biases" : 1,
      "C" : 64,
      "bottom" : "593",
      "weights" : {

      },
      "Nx" : 1,
      "pad_mode" : 0,
      "pad_value" : 0,
      "Ny" : 1,
      "n_parallel" : 1,
      "blob_weights_f16" : 191
    },
    {
      "bottom" : "input.111",
      "weights" : {

      },
      "mode" : 3,
      "debug_info" : "605__silu_sigmoid__",
      "top" : "605__silu_sigmoid__",
      "type" : "activation",
      "name" : "605__silu_sigmoid__"
    },
    {
      "bottom" : "input.111,605__silu_sigmoid__",
      "alpha" : 1,
      "operation" : 1,
      "weights" : {

      },
      "fused_relu" : 0,
      "debug_info" : "605",
      "top" : "605",
      "type" : "elementwise",
      "name" : "605",
      "beta" : 0
    },
    {
      "pad_r" : 1,
      "fused_relu" : 0,
      "fused_tanh" : 0,
      "debug_info" : "input.113",
      "pad_fill_mode" : 0,
      "pad_b" : 1,
      "pad_l" : 1,
      "top" : "input.113",
      "K" : 64,
      "blob_biases" : 193,
      "name" : "input.113",
      "has_batch_norm" : 0,
      "type" : "convolution",
      "n_groups" : 1,
      "pad_t" : 1,
      "has_biases" : 1,
      "C" : 64,
      "bottom" : "605",
      "weights" : {

      },
      "Nx" : 3,
      "pad_mode" : 0,
      "pad_value" : 0,
      "Ny" : 3,
      "n_parallel" : 1,
      "blob_weights_f16" : 195
    },
    {
      "bottom" : "input.113",
      "weights" : {

      },
      "mode" : 3,
      "debug_info" : "614__silu_sigmoid__",
      "top" : "614__silu_sigmoid__",
      "type" : "activation",
      "name" : "614__silu_sigmoid__"
    },
    {
      "bottom" : "input.113,614__silu_sigmoid__",
      "alpha" : 1,
      "operation" : 1,
      "weights" : {

      },
      "fused_relu" : 0,
      "debug_info" : "614",
      "top" : "614",
      "type" : "elementwise",
      "name" : "614",
      "beta" : 0
    },
    {
      "pad_r" : 0,
      "fused_relu" : 0,
      "fused_tanh" : 0,
      "debug_info" : "input.105",
      "pad_fill_mode" : 0,
      "pad_b" : 0,
      "pad_l" : 0,
      "top" : "input.105",
      "K" : 128,
      "blob_biases" : 197,
      "name" : "input.105",
      "has_batch_norm" : 0,
      "type" : "convolution",
      "n_groups" : 1,
      "pad_t" : 0,
      "has_biases" : 1,
      "C" : 64,
      "bottom" : "input.101",
      "weights" : {

      },
      "Nx" : 1,
      "pad_mode" : 0,
      "pad_value" : 0,
      "Ny" : 1,
      "n_parallel" : 1,
      "blob_weights_f16" : 199
    },
    {
      "bottom" : "input.105",
      "weights" : {

      },
      "mode" : 3,
      "debug_info" : "623__silu_sigmoid__",
      "top" : "623__silu_sigmoid__",
      "type" : "activation",
      "name" : "623__silu_sigmoid__"
    },
    {
      "bottom" : "input.105,623__silu_sigmoid__",
      "alpha" : 1,
      "operation" : 1,
      "weights" : {

      },
      "fused_relu" : 0,
      "debug_info" : "623",
      "top" : "623",
      "type" : "elementwise",
      "name" : "623",
      "beta" : 0
    },
    {
      "weights" : {

      },
      "debug_info" : "input.117",
      "top" : "input.117",
      "type" : "concat",
      "name" : "input.117",
      "bottom" : "614,623"
    },
    {
      "pad_r" : 0,
      "fused_relu" : 0,
      "fused_tanh" : 0,
      "debug_info" : "input0.16",
      "pad_fill_mode" : 0,
      "pad_b" : 0,
      "pad_l" : 0,
      "top" : "input0.16",
      "K" : 128,
      "blob_biases" : 201,
      "name" : "input0.16",
      "has_batch_norm" : 0,
      "type" : "convolution",
      "n_groups" : 1,
      "pad_t" : 0,
      "has_biases" : 1,
      "C" : 128,
      "bottom" : "input.117",
      "weights" : {

      },
      "Nx" : 1,
      "pad_mode" : 0,
      "pad_value" : 0,
      "Ny" : 1,
      "n_parallel" : 1,
      "blob_weights_f16" : 203
    },
    {
      "bottom" : "input0.16",
      "weights" : {

      },
      "mode" : 3,
      "debug_info" : "634__silu_sigmoid__",
      "top" : "634__silu_sigmoid__",
      "type" : "activation",
      "name" : "634__silu_sigmoid__"
    },
    {
      "bottom" : "input0.16,634__silu_sigmoid__",
      "alpha" : 1,
      "operation" : 1,
      "weights" : {

      },
      "fused_relu" : 0,
      "debug_info" : "634",
      "top" : "634",
      "type" : "elementwise",
      "name" : "634",
      "beta" : 0
    },
    {
      "pad_r" : 1,
      "fused_relu" : 0,
      "fused_tanh" : 0,
      "debug_info" : "input.107",
      "pad_fill_mode" : 0,
      "pad_b" : 1,
      "pad_l" : 1,
      "top" : "input.107",
      "K" : 128,
      "blob_biases" : 205,
      "stride_x" : 2,
      "name" : "input.107",
      "has_batch_norm" : 0,
      "type" : "convolution",
      "n_groups" : 1,
      "pad_t" : 1,
      "stride_y" : 2,
      "has_biases" : 1,
      "C" : 128,
      "bottom" : "634",
      "weights" : {

      },
      "Nx" : 3,
      "pad_mode" : 0,
      "pad_value" : 0,
      "Ny" : 3,
      "n_parallel" : 1,
      "blob_weights_f16" : 207
    },
    {
      "bottom" : "input.107",
      "weights" : {

      },
      "mode" : 3,
      "debug_info" : "643__silu_sigmoid__",
      "top" : "643__silu_sigmoid__",
      "type" : "activation",
      "name" : "643__silu_sigmoid__"
    },
    {
      "bottom" : "input.107,643__silu_sigmoid__",
      "alpha" : 1,
      "operation" : 1,
      "weights" : {

      },
      "fused_relu" : 0,
      "debug_info" : "643",
      "top" : "643",
      "type" : "elementwise",
      "name" : "643",
      "beta" : 0
    },
    {
      "weights" : {

      },
      "debug_info" : "input.115",
      "top" : "input.115",
      "type" : "concat",
      "name" : "input.115",
      "bottom" : "643,444"
    },
    {
      "pad_r" : 0,
      "fused_relu" : 0,
      "fused_tanh" : 0,
      "debug_info" : "input.6",
      "pad_fill_mode" : 0,
      "pad_b" : 0,
      "pad_l" : 0,
      "top" : "input.6",
      "K" : 256,
      "blob_biases" : 209,
      "name" : "input.6",
      "has_batch_norm" : 0,
      "type" : "convolution",
      "n_groups" : 1,
      "pad_t" : 0,
      "has_biases" : 1,
      "C" : 128,
      "bottom" : "input.115",
      "weights" : {

      },
      "Nx" : 1,
      "pad_mode" : 0,
      "pad_value" : 0,
      "Ny" : 1,
      "n_parallel" : 1,
      "blob_weights_f16" : 211
    },
    {
      "bottom" : "input.6",
      "weights" : {

      },
      "mode" : 3,
      "debug_info" : "658__silu_sigmoid__",
      "top" : "658__silu_sigmoid__",
      "type" : "activation",
      "name" : "658__silu_sigmoid__"
    },
    {
      "bottom" : "input.6,658__silu_sigmoid__",
      "alpha" : 1,
      "operation" : 1,
      "weights" : {

      },
      "fused_relu" : 0,
      "debug_info" : "658",
      "top" : "658",
      "type" : "elementwise",
      "name" : "658",
      "beta" : 0
    },
    {
      "pad_r" : 0,
      "fused_relu" : 0,
      "fused_tanh" : 0,
      "debug_info" : "input.2",
      "pad_fill_mode" : 0,
      "pad_b" : 0,
      "pad_l" : 0,
      "top" : "input.2",
      "K" : 128,
      "blob_biases" : 213,
      "name" : "input.2",
      "has_batch_norm" : 0,
      "type" : "convolution",
      "n_groups" : 1,
      "pad_t" : 0,
      "has_biases" : 1,
      "C" : 128,
      "bottom" : "658",
      "weights" : {

      },
      "Nx" : 1,
      "pad_mode" : 0,
      "pad_value" : 0,
      "Ny" : 1,
      "n_parallel" : 1,
      "blob_weights_f16" : 215
    },
    {
      "bottom" : "input.2",
      "weights" : {

      },
      "mode" : 3,
      "debug_info" : "670__silu_sigmoid__",
      "top" : "670__silu_sigmoid__",
      "type" : "activation",
      "name" : "670__silu_sigmoid__"
    },
    {
      "bottom" : "input.2,670__silu_sigmoid__",
      "alpha" : 1,
      "operation" : 1,
      "weights" : {

      },
      "fused_relu" : 0,
      "debug_info" : "670",
      "top" : "670",
      "type" : "elementwise",
      "name" : "670",
      "beta" : 0
    },
    {
      "pad_r" : 1,
      "fused_relu" : 0,
      "fused_tanh" : 0,
      "debug_info" : "input.8",
      "pad_fill_mode" : 0,
      "pad_b" : 1,
      "pad_l" : 1,
      "top" : "input.8",
      "K" : 128,
      "blob_biases" : 217,
      "name" : "input.8",
      "has_batch_norm" : 0,
      "type" : "convolution",
      "n_groups" : 1,
      "pad_t" : 1,
      "has_biases" : 1,
      "C" : 128,
      "bottom" : "670",
      "weights" : {

      },
      "Nx" : 3,
      "pad_mode" : 0,
      "pad_value" : 0,
      "Ny" : 3,
      "n_parallel" : 1,
      "blob_weights_f16" : 219
    },
    {
      "bottom" : "input.8",
      "weights" : {

      },
      "mode" : 3,
      "debug_info" : "679__silu_sigmoid__",
      "top" : "679__silu_sigmoid__",
      "type" : "activation",
      "name" : "679__silu_sigmoid__"
    },
    {
      "bottom" : "input.8,679__silu_sigmoid__",
      "alpha" : 1,
      "operation" : 1,
      "weights" : {

      },
      "fused_relu" : 0,
      "debug_info" : "679",
      "top" : "679",
      "type" : "elementwise",
      "name" : "679",
      "beta" : 0
    },
    {
      "pad_r" : 0,
      "fused_relu" : 0,
      "fused_tanh" : 0,
      "debug_info" : "input.1",
      "pad_fill_mode" : 0,
      "pad_b" : 0,
      "pad_l" : 0,
      "top" : "input.1",
      "K" : 256,
      "blob_biases" : 221,
      "name" : "input.1",
      "has_batch_norm" : 0,
      "type" : "convolution",
      "n_groups" : 1,
      "pad_t" : 0,
      "has_biases" : 1,
      "C" : 128,
      "bottom" : "input.115",
      "weights" : {

      },
      "Nx" : 1,
      "pad_mode" : 0,
      "pad_value" : 0,
      "Ny" : 1,
      "n_parallel" : 1,
      "blob_weights_f16" : 223
    },
    {
      "bottom" : "input.1",
      "weights" : {

      },
      "mode" : 3,
      "debug_info" : "688__silu_sigmoid__",
      "top" : "688__silu_sigmoid__",
      "type" : "activation",
      "name" : "688__silu_sigmoid__"
    },
    {
      "bottom" : "input.1,688__silu_sigmoid__",
      "alpha" : 1,
      "operation" : 1,
      "weights" : {

      },
      "fused_relu" : 0,
      "debug_info" : "688",
      "top" : "688",
      "type" : "elementwise",
      "name" : "688",
      "beta" : 0
    },
    {
      "weights" : {

      },
      "debug_info" : "input.4",
      "top" : "input.4",
      "type" : "concat",
      "name" : "input.4",
      "bottom" : "679,688"
    },
    {
      "pad_r" : 0,
      "fused_relu" : 0,
      "fused_tanh" : 0,
      "debug_info" : "input0.1",
      "pad_fill_mode" : 0,
      "pad_b" : 0,
      "pad_l" : 0,
      "top" : "input0.1",
      "K" : 256,
      "blob_biases" : 225,
      "name" : "input0.1",
      "has_batch_norm" : 0,
      "type" : "convolution",
      "n_groups" : 1,
      "pad_t" : 0,
      "has_biases" : 1,
      "C" : 256,
      "bottom" : "input.4",
      "weights" : {

      },
      "Nx" : 1,
      "pad_mode" : 0,
      "pad_value" : 0,
      "Ny" : 1,
      "n_parallel" : 1,
      "blob_weights_f16" : 227
    },
    {
      "bottom" : "input0.1",
      "weights" : {

      },
      "mode" : 3,
      "debug_info" : "699__silu_sigmoid__",
      "top" : "699__silu_sigmoid__",
      "type" : "activation",
      "name" : "699__silu_sigmoid__"
    },
    {
      "bottom" : "input0.1,699__silu_sigmoid__",
      "alpha" : 1,
      "operation" : 1,
      "weights" : {

      },
      "fused_relu" : 0,
      "debug_info" : "699",
      "top" : "699",
      "type" : "elementwise",
      "name" : "699",
      "beta" : 0
    },
    {
      "pad_r" : 0,
      "fused_relu" : 0,
      "fused_tanh" : 0,
      "debug_info" : "712",
      "pad_fill_mode" : 0,
      "pad_b" : 0,
      "pad_l" : 0,
      "top" : "712",
      "K" : 64,
      "blob_biases" : 229,
      "name" : "712",
      "has_batch_norm" : 0,
      "type" : "convolution",
      "n_groups" : 1,
      "pad_t" : 0,
      "has_biases" : 1,
      "C" : 18,
      "bottom" : "569",
      "weights" : {

      },
      "Nx" : 1,
      "pad_mode" : 0,
      "pad_value" : 0,
      "Ny" : 1,
      "n_parallel" : 1,
      "blob_weights_f16" : 231
    },
    {
      "name" : "717",
      "weights" : {

      },
      "dst_w" : 16,
      "version" : 1,
      "dst_n" : 3,
      "dst_nd_rank" : 5,
      "type" : "reshape",
      "dst_h" : 12,
      "mode" : 0,
      "dynamic_shape" : false,
      "bottom" : "712",
      "debug_info" : "717",
      "dst_seq" : 1,
      "dst_k" : 6,
      "top" : "717"
    },
    {
      "axis_h" : 0,
      "axis_w" : 2,
      "bottom" : "717",
      "axis_k" : 1,
      "axis_n" : 3,
      "axis_seq" : 4,
      "weights" : {

      },
      "debug_info" : "transpose_2",
      "top" : "transpose_2",
      "type" : "transpose",
      "name" : "transpose_2"
    },
    {
      "bottom" : "transpose_2",
      "weights" : {

      },
      "mode" : 3,
      "debug_info" : "721",
      "top" : "721",
      "type" : "activation",
      "name" : "721"
    },
    {
      "begin_104" : 0,
      "begin_63" : 0,
      "begin_59" : 0,
      "begin_64" : 0,
      "begin_105" : 0,
      "begin_65" : 0,
      "begin_0" : 0,
      "begin_70" : 0,
      "begin_66" : 0,
      "begin_106" : 0,
      "begin_110" : 0,
      "begin_2" : 0,
      "begin_71" : 0,
      "begin_67" : 0,
      "begin_68" : 0,
      "begin_107" : 0,
      "begin_111" : 0,
      "begin_4" : 0,
      "begin_72" : 0,
      "begin_73" : 0,
      "begin_69" : 0,
      "begin_6" : 0,
      "begin_74" : 0,
      "begin_108" : 0,
      "type" : "split_nd",
      "begin_8" : 0,
      "begin_112" : 0,
      "begin_75" : 0,
      "begin_10" : 0,
      "begin_80" : 0,
      "begin_76" : 0,
      "begin_109" : 0,
      "begin_113" : 0,
      "begin_11" : 0,
      "nd_axis" : 4,
      "begin_81" : 0,
      "begin_77" : 0,
      "begin_114" : 0,
      "begin_12" : 0,
      "begin_78" : 0,
      "begin_82" : 0,
      "begin_13" : 0,
      "begin_83" : 0,
      "begin_79" : 0,
      "begin_115" : 0,
      "begin_14" : 0,
      "begin_84" : 0,
      "begin_15" : 0,
      "begin_85" : 0,
      "num_splits" : 3,
      "begin_116" : 0,
      "begin_120" : 0,
      "begin_20" : 0,
      "begin_86" : 0,
      "begin_16" : 0,
      "begin_90" : 0,
      "begin_21" : 0,
      "begin_91" : 0,
      "begin_87" : 0,
      "begin_17" : 0,
      "begin_117" : 0,
      "begin_121" : 0,
      "begin_18" : 0,
      "begin_92" : 0,
      "begin_88" : 0,
      "begin_22" : 0,
      "begin_23" : 0,
      "begin_89" : 0,
      "begin_19" : 0,
      "begin_93" : 0,
      "begin_118" : 0,
      "begin_122" : 0,
      "begin_24" : 0,
      "begin_94" : 0,
      "begin_25" : 0,
      "begin_95" : 0,
      "begin_119" : 0,
      "begin_123" : 0,
      "begin_30" : 0,
      "begin_26" : 0,
      "begin_96" : 0,
      "begin_124" : 0,
      "begin_31" : 0,
      "begin_97" : 0,
      "begin_27" : 0,
      "begin_28" : 0,
      "begin_98" : 0,
      "begin_32" : 0,
      "begin_125" : 0,
      "begin_33" : 0,
      "begin_29" : 0,
      "begin_99" : 0,
      "begin_1" : 0,
      "weights" : {

      },
      "begin_34" : 0,
      "bottom" : "721",
      "begin_3" : 0,
      "begin_126" : 0,
      "begin_35" : 0,
      "begin_5" : 0,
      "begin_36" : 0,
      "begin_40" : 0,
      "begin_127" : 0,
      "name" : "723",
      "begin_41" : 0,
      "begin_37" : 0,
      "begin_7" : 0,
      "begin_42" : 0,
      "begin_38" : 0,
      "begin_9" : 0,
      "begin_39" : 0,
      "begin_43" : 0,
      "begin_44" : 0,
      "begin_45" : 0,
      "begin_50" : 0,
      "begin_46" : 0,
      "begin_51" : 0,
      "begin_47" : 0,
      "begin_100" : 0,
      "begin_52" : 0,
      "debug_info" : "723",
      "begin_48" : 0,
      "top" : "723_0,723_1,723_2",
      "begin_101" : 0,
      "begin_53" : 0,
      "begin_49" : 0,
      "begin_54" : 0,
      "begin_55" : 0,
      "begin_102" : 0,
      "begin_60" : 0,
      "begin_56" : 0,
      "begin_103" : 0,
      "begin_57" : 0,
      "begin_61" : 0,
      "begin_62" : 0,
      "begin_58" : 0
    },
    {
      "bottom" : "723_0",
      "alpha" : 2,
      "operation" : 1,
      "weights" : {

      },
      "fused_relu" : 0,
      "debug_info" : "728",
      "top" : "728",
      "type" : "elementwise",
      "name" : "728",
      "beta" : 0
    },
    {
      "top" : "17",
      "w" : 2,
      "h" : 16,
      "name" : "17",
      "nd_rank" : 5,
      "type" : "load_constant",
      "k" : 12,
      "bottom" : "",
      "debug_info" : "17",
      "n" : 3,
      "weights" : {

      },
      "constant_blob" : 233
    },
    {
      "bottom" : "728,17",
      "alpha" : 1,
      "operation" : 0,
      "weights" : {

      },
      "fused_relu" : 0,
      "debug_info" : "729",
      "top" : "729",
      "type" : "elementwise",
      "name" : "729",
      "beta" : 0
    },
    {
      "bottom" : "729",
      "alpha" : 8,
      "operation" : 1,
      "weights" : {

      },
      "fused_relu" : 0,
      "debug_info" : "xy0.1",
      "top" : "xy0.1",
      "type" : "elementwise",
      "name" : "xy0.1",
      "beta" : 0
    },
    {
      "bottom" : "723_1",
      "alpha" : 2,
      "operation" : 1,
      "weights" : {

      },
      "fused_relu" : 0,
      "debug_info" : "733",
      "top" : "733",
      "type" : "elementwise",
      "name" : "733",
      "beta" : 0
    },
    {
      "bottom" : "733",
      "alpha" : 2,
      "operation" : 13,
      "weights" : {

      },
      "fused_relu" : 0,
      "debug_info" : "734",
      "top" : "734",
      "type" : "elementwise",
      "name" : "734",
      "beta" : 0
    },
    {
      "top" : "15",
      "w" : 2,
      "h" : 16,
      "name" : "15",
      "nd_rank" : 5,
      "type" : "load_constant",
      "k" : 12,
      "bottom" : "",
      "debug_info" : "15",
      "n" : 3,
      "weights" : {

      },
      "constant_blob" : 235
    },
    {
      "bottom" : "734,15",
      "alpha" : 1,
      "operation" : 1,
      "weights" : {

      },
      "fused_relu" : 0,
      "debug_info" : "wh0.1",
      "top" : "wh0.1",
      "type" : "elementwise",
      "name" : "wh0.1",
      "beta" : 0
    },
    {
      "top" : "_inversed_xy1.1_y_0",
      "w" : 2,
      "h" : 1,
      "name" : "_inversed_xy1.1_y_0",
      "nd_rank" : 2,
      "type" : "load_constant",
      "k" : 1,
      "bottom" : "",
      "debug_info" : "_inversed_xy1.1_y_0",
      "n" : 1,
      "weights" : {

      },
      "constant_blob" : 237
    },
    {
      "bottom" : "xy0.1,_inversed_xy1.1_y_0",
      "alpha" : 1,
      "operation" : 1,
      "weights" : {

      },
      "fused_relu" : 0,
      "debug_info" : "_inversed_xy1.1",
      "nd_mode" : true,
      "top" : "_inversed_xy1.1",
      "type" : "elementwise",
      "name" : "_inversed_xy1.1",
      "beta" : 0
    },
    {
      "top" : "_inversed_wh1.1_y_0",
      "w" : 2,
      "h" : 1,
      "name" : "_inversed_wh1.1_y_0",
      "nd_rank" : 2,
      "type" : "load_constant",
      "k" : 1,
      "bottom" : "",
      "debug_info" : "_inversed_wh1.1_y_0",
      "n" : 1,
      "weights" : {

      },
      "constant_blob" : 239
    },
    {
      "bottom" : "wh0.1,_inversed_wh1.1_y_0",
      "alpha" : 1,
      "operation" : 1,
      "weights" : {

      },
      "fused_relu" : 0,
      "debug_info" : "_inversed_wh1.1",
      "nd_mode" : true,
      "top" : "_inversed_wh1.1",
      "type" : "elementwise",
      "name" : "_inversed_wh1.1",
      "beta" : 0
    },
    {
      "bottom" : "_inversed_xy1.1,_inversed_wh1.1,723_2",
      "weights" : {

      },
      "nd_mode" : true,
      "axis" : 4,
      "debug_info" : "y.1",
      "top" : "y.1",
      "type" : "general_concat",
      "name" : "y.1"
    },
    {
      "name" : "743",
      "weights" : {

      },
      "dst_w" : 6,
      "version" : 1,
      "dst_n" : 1,
      "dst_nd_rank" : 3,
      "type" : "reshape",
      "dst_h" : -1,
      "mode" : 0,
      "dynamic_shape" : false,
      "bottom" : "y.1",
      "debug_info" : "743",
      "dst_seq" : 1,
      "dst_k" : 1,
      "top" : "743"
    },
    {
      "pad_r" : 0,
      "fused_relu" : 0,
      "fused_tanh" : 0,
      "debug_info" : "750",
      "pad_fill_mode" : 0,
      "pad_b" : 0,
      "pad_l" : 0,
      "top" : "750",
      "K" : 128,
      "blob_biases" : 241,
      "name" : "750",
      "has_batch_norm" : 0,
      "type" : "convolution",
      "n_groups" : 1,
      "pad_t" : 0,
      "has_biases" : 1,
      "C" : 18,
      "bottom" : "634",
      "weights" : {

      },
      "Nx" : 1,
      "pad_mode" : 0,
      "pad_value" : 0,
      "Ny" : 1,
      "n_parallel" : 1,
      "blob_weights_f16" : 243
    },
    {
      "name" : "755",
      "weights" : {

      },
      "dst_w" : 8,
      "version" : 1,
      "dst_n" : 3,
      "dst_nd_rank" : 5,
      "type" : "reshape",
      "dst_h" : 6,
      "mode" : 0,
      "dynamic_shape" : false,
      "bottom" : "750",
      "debug_info" : "755",
      "dst_seq" : 1,
      "dst_k" : 6,
      "top" : "755"
    },
    {
      "axis_h" : 0,
      "axis_w" : 2,
      "bottom" : "755",
      "axis_k" : 1,
      "axis_n" : 3,
      "axis_seq" : 4,
      "weights" : {

      },
      "debug_info" : "transpose_1",
      "top" : "transpose_1",
      "type" : "transpose",
      "name" : "transpose_1"
    },
    {
      "bottom" : "transpose_1",
      "weights" : {

      },
      "mode" : 3,
      "debug_info" : "759",
      "top" : "759",
      "type" : "activation",
      "name" : "759"
    },
    {
      "begin_104" : 0,
      "begin_63" : 0,
      "begin_59" : 0,
      "begin_64" : 0,
      "begin_105" : 0,
      "begin_65" : 0,
      "begin_0" : 0,
      "begin_70" : 0,
      "begin_66" : 0,
      "begin_106" : 0,
      "begin_110" : 0,
      "begin_2" : 0,
      "begin_71" : 0,
      "begin_67" : 0,
      "begin_68" : 0,
      "begin_107" : 0,
      "begin_111" : 0,
      "begin_4" : 0,
      "begin_72" : 0,
      "begin_73" : 0,
      "begin_69" : 0,
      "begin_6" : 0,
      "begin_74" : 0,
      "begin_108" : 0,
      "type" : "split_nd",
      "begin_8" : 0,
      "begin_112" : 0,
      "begin_75" : 0,
      "begin_10" : 0,
      "begin_80" : 0,
      "begin_76" : 0,
      "begin_109" : 0,
      "begin_113" : 0,
      "begin_11" : 0,
      "nd_axis" : 4,
      "begin_81" : 0,
      "begin_77" : 0,
      "begin_114" : 0,
      "begin_12" : 0,
      "begin_78" : 0,
      "begin_82" : 0,
      "begin_13" : 0,
      "begin_83" : 0,
      "begin_79" : 0,
      "begin_115" : 0,
      "begin_14" : 0,
      "begin_84" : 0,
      "begin_15" : 0,
      "begin_85" : 0,
      "num_splits" : 3,
      "begin_116" : 0,
      "begin_120" : 0,
      "begin_20" : 0,
      "begin_86" : 0,
      "begin_16" : 0,
      "begin_90" : 0,
      "begin_21" : 0,
      "begin_91" : 0,
      "begin_87" : 0,
      "begin_17" : 0,
      "begin_117" : 0,
      "begin_121" : 0,
      "begin_18" : 0,
      "begin_92" : 0,
      "begin_88" : 0,
      "begin_22" : 0,
      "begin_23" : 0,
      "begin_89" : 0,
      "begin_19" : 0,
      "begin_93" : 0,
      "begin_118" : 0,
      "begin_122" : 0,
      "begin_24" : 0,
      "begin_94" : 0,
      "begin_25" : 0,
      "begin_95" : 0,
      "begin_119" : 0,
      "begin_123" : 0,
      "begin_30" : 0,
      "begin_26" : 0,
      "begin_96" : 0,
      "begin_124" : 0,
      "begin_31" : 0,
      "begin_97" : 0,
      "begin_27" : 0,
      "begin_28" : 0,
      "begin_98" : 0,
      "begin_32" : 0,
      "begin_125" : 0,
      "begin_33" : 0,
      "begin_29" : 0,
      "begin_99" : 0,
      "begin_1" : 0,
      "weights" : {

      },
      "begin_34" : 0,
      "bottom" : "759",
      "begin_3" : 0,
      "begin_126" : 0,
      "begin_35" : 0,
      "begin_5" : 0,
      "begin_36" : 0,
      "begin_40" : 0,
      "begin_127" : 0,
      "name" : "761",
      "begin_41" : 0,
      "begin_37" : 0,
      "begin_7" : 0,
      "begin_42" : 0,
      "begin_38" : 0,
      "begin_9" : 0,
      "begin_39" : 0,
      "begin_43" : 0,
      "begin_44" : 0,
      "begin_45" : 0,
      "begin_50" : 0,
      "begin_46" : 0,
      "begin_51" : 0,
      "begin_47" : 0,
      "begin_100" : 0,
      "begin_52" : 0,
      "debug_info" : "761",
      "begin_48" : 0,
      "top" : "761_0,761_1,761_2",
      "begin_101" : 0,
      "begin_53" : 0,
      "begin_49" : 0,
      "begin_54" : 0,
      "begin_55" : 0,
      "begin_102" : 0,
      "begin_60" : 0,
      "begin_56" : 0,
      "begin_103" : 0,
      "begin_57" : 0,
      "begin_61" : 0,
      "begin_62" : 0,
      "begin_58" : 0
    },
    {
      "bottom" : "761_0",
      "alpha" : 2,
      "operation" : 1,
      "weights" : {

      },
      "fused_relu" : 0,
      "debug_info" : "766",
      "top" : "766",
      "type" : "elementwise",
      "name" : "766",
      "beta" : 0
    },
    {
      "top" : "12",
      "w" : 2,
      "h" : 8,
      "name" : "12",
      "nd_rank" : 5,
      "type" : "load_constant",
      "k" : 6,
      "bottom" : "",
      "debug_info" : "12",
      "n" : 3,
      "weights" : {

      },
      "constant_blob" : 245
    },
    {
      "bottom" : "766,12",
      "alpha" : 1,
      "operation" : 0,
      "weights" : {

      },
      "fused_relu" : 0,
      "debug_info" : "767",
      "top" : "767",
      "type" : "elementwise",
      "name" : "767",
      "beta" : 0
    },
    {
      "bottom" : "767",
      "alpha" : 16,
      "operation" : 1,
      "weights" : {

      },
      "fused_relu" : 0,
      "debug_info" : "xy3.1",
      "top" : "xy3.1",
      "type" : "elementwise",
      "name" : "xy3.1",
      "beta" : 0
    },
    {
      "bottom" : "761_1",
      "alpha" : 2,
      "operation" : 1,
      "weights" : {

      },
      "fused_relu" : 0,
      "debug_info" : "771",
      "top" : "771",
      "type" : "elementwise",
      "name" : "771",
      "beta" : 0
    },
    {
      "bottom" : "771",
      "alpha" : 2,
      "operation" : 13,
      "weights" : {

      },
      "fused_relu" : 0,
      "debug_info" : "772",
      "top" : "772",
      "type" : "elementwise",
      "name" : "772",
      "beta" : 0
    },
    {
      "top" : "11",
      "w" : 2,
      "h" : 8,
      "name" : "11",
      "nd_rank" : 5,
      "type" : "load_constant",
      "k" : 6,
      "bottom" : "",
      "debug_info" : "11",
      "n" : 3,
      "weights" : {

      },
      "constant_blob" : 247
    },
    {
      "bottom" : "772,11",
      "alpha" : 1,
      "operation" : 1,
      "weights" : {

      },
      "fused_relu" : 0,
      "debug_info" : "wh3.1",
      "top" : "wh3.1",
      "type" : "elementwise",
      "name" : "wh3.1",
      "beta" : 0
    },
    {
      "top" : "_inversed_xy4.1_y_0",
      "w" : 2,
      "h" : 1,
      "name" : "_inversed_xy4.1_y_0",
      "nd_rank" : 2,
      "type" : "load_constant",
      "k" : 1,
      "bottom" : "",
      "debug_info" : "_inversed_xy4.1_y_0",
      "n" : 1,
      "weights" : {

      },
      "constant_blob" : 249
    },
    {
      "bottom" : "xy3.1,_inversed_xy4.1_y_0",
      "alpha" : 1,
      "operation" : 1,
      "weights" : {

      },
      "fused_relu" : 0,
      "debug_info" : "_inversed_xy4.1",
      "nd_mode" : true,
      "top" : "_inversed_xy4.1",
      "type" : "elementwise",
      "name" : "_inversed_xy4.1",
      "beta" : 0
    },
    {
      "top" : "_inversed_wh4.1_y_0",
      "w" : 2,
      "h" : 1,
      "name" : "_inversed_wh4.1_y_0",
      "nd_rank" : 2,
      "type" : "load_constant",
      "k" : 1,
      "bottom" : "",
      "debug_info" : "_inversed_wh4.1_y_0",
      "n" : 1,
      "weights" : {

      },
      "constant_blob" : 251
    },
    {
      "bottom" : "wh3.1,_inversed_wh4.1_y_0",
      "alpha" : 1,
      "operation" : 1,
      "weights" : {

      },
      "fused_relu" : 0,
      "debug_info" : "_inversed_wh4.1",
      "nd_mode" : true,
      "top" : "_inversed_wh4.1",
      "type" : "elementwise",
      "name" : "_inversed_wh4.1",
      "beta" : 0
    },
    {
      "bottom" : "_inversed_xy4.1,_inversed_wh4.1,761_2",
      "weights" : {

      },
      "nd_mode" : true,
      "axis" : 4,
      "debug_info" : "y0.1",
      "top" : "y0.1",
      "type" : "general_concat",
      "name" : "y0.1"
    },
    {
      "name" : "781",
      "weights" : {

      },
      "dst_w" : 6,
      "version" : 1,
      "dst_n" : 1,
      "dst_nd_rank" : 3,
      "type" : "reshape",
      "dst_h" : -1,
      "mode" : 0,
      "dynamic_shape" : false,
      "bottom" : "y0.1",
      "debug_info" : "781",
      "dst_seq" : 1,
      "dst_k" : 1,
      "top" : "781"
    },
    {
      "pad_r" : 0,
      "fused_relu" : 0,
      "fused_tanh" : 0,
      "debug_info" : "788",
      "pad_fill_mode" : 0,
      "pad_b" : 0,
      "pad_l" : 0,
      "top" : "788",
      "K" : 256,
      "blob_biases" : 253,
      "name" : "788",
      "has_batch_norm" : 0,
      "type" : "convolution",
      "n_groups" : 1,
      "pad_t" : 0,
      "has_biases" : 1,
      "C" : 18,
      "bottom" : "699",
      "weights" : {

      },
      "Nx" : 1,
      "pad_mode" : 0,
      "pad_value" : 0,
      "Ny" : 1,
      "n_parallel" : 1,
      "blob_weights_f16" : 255
    },
    {
      "name" : "793",
      "weights" : {

      },
      "dst_w" : 4,
      "version" : 1,
      "dst_n" : 3,
      "dst_nd_rank" : 5,
      "type" : "reshape",
      "dst_h" : 3,
      "mode" : 0,
      "dynamic_shape" : false,
      "bottom" : "788",
      "debug_info" : "793",
      "dst_seq" : 1,
      "dst_k" : 6,
      "top" : "793"
    },
    {
      "axis_h" : 0,
      "axis_w" : 2,
      "bottom" : "793",
      "axis_k" : 1,
      "axis_n" : 3,
      "axis_seq" : 4,
      "weights" : {

      },
      "debug_info" : "transpose_0",
      "top" : "transpose_0",
      "type" : "transpose",
      "name" : "transpose_0"
    },
    {
      "bottom" : "transpose_0",
      "weights" : {

      },
      "mode" : 3,
      "debug_info" : "797",
      "top" : "797",
      "type" : "activation",
      "name" : "797"
    },
    {
      "begin_104" : 0,
      "begin_63" : 0,
      "begin_59" : 0,
      "begin_64" : 0,
      "begin_105" : 0,
      "begin_65" : 0,
      "begin_0" : 0,
      "begin_70" : 0,
      "begin_66" : 0,
      "begin_106" : 0,
      "begin_110" : 0,
      "begin_2" : 0,
      "begin_71" : 0,
      "begin_67" : 0,
      "begin_68" : 0,
      "begin_107" : 0,
      "begin_111" : 0,
      "begin_4" : 0,
      "begin_72" : 0,
      "begin_73" : 0,
      "begin_69" : 0,
      "begin_6" : 0,
      "begin_74" : 0,
      "begin_108" : 0,
      "type" : "split_nd",
      "begin_8" : 0,
      "begin_112" : 0,
      "begin_75" : 0,
      "begin_10" : 0,
      "begin_80" : 0,
      "begin_76" : 0,
      "begin_109" : 0,
      "begin_113" : 0,
      "begin_11" : 0,
      "nd_axis" : 4,
      "begin_81" : 0,
      "begin_77" : 0,
      "begin_114" : 0,
      "begin_12" : 0,
      "begin_78" : 0,
      "begin_82" : 0,
      "begin_13" : 0,
      "begin_83" : 0,
      "begin_79" : 0,
      "begin_115" : 0,
      "begin_14" : 0,
      "begin_84" : 0,
      "begin_15" : 0,
      "begin_85" : 0,
      "num_splits" : 3,
      "begin_116" : 0,
      "begin_120" : 0,
      "begin_20" : 0,
      "begin_86" : 0,
      "begin_16" : 0,
      "begin_90" : 0,
      "begin_21" : 0,
      "begin_91" : 0,
      "begin_87" : 0,
      "begin_17" : 0,
      "begin_117" : 0,
      "begin_121" : 0,
      "begin_18" : 0,
      "begin_92" : 0,
      "begin_88" : 0,
      "begin_22" : 0,
      "begin_23" : 0,
      "begin_89" : 0,
      "begin_19" : 0,
      "begin_93" : 0,
      "begin_118" : 0,
      "begin_122" : 0,
      "begin_24" : 0,
      "begin_94" : 0,
      "begin_25" : 0,
      "begin_95" : 0,
      "begin_119" : 0,
      "begin_123" : 0,
      "begin_30" : 0,
      "begin_26" : 0,
      "begin_96" : 0,
      "begin_124" : 0,
      "begin_31" : 0,
      "begin_97" : 0,
      "begin_27" : 0,
      "begin_28" : 0,
      "begin_98" : 0,
      "begin_32" : 0,
      "begin_125" : 0,
      "begin_33" : 0,
      "begin_29" : 0,
      "begin_99" : 0,
      "begin_1" : 0,
      "weights" : {

      },
      "begin_34" : 0,
      "bottom" : "797",
      "begin_3" : 0,
      "begin_126" : 0,
      "begin_35" : 0,
      "begin_5" : 0,
      "begin_36" : 0,
      "begin_40" : 0,
      "begin_127" : 0,
      "name" : "799",
      "begin_41" : 0,
      "begin_37" : 0,
      "begin_7" : 0,
      "begin_42" : 0,
      "begin_38" : 0,
      "begin_9" : 0,
      "begin_39" : 0,
      "begin_43" : 0,
      "begin_44" : 0,
      "begin_45" : 0,
      "begin_50" : 0,
      "begin_46" : 0,
      "begin_51" : 0,
      "begin_47" : 0,
      "begin_100" : 0,
      "begin_52" : 0,
      "debug_info" : "799",
      "begin_48" : 0,
      "top" : "799_0,799_1,799_2",
      "begin_101" : 0,
      "begin_53" : 0,
      "begin_49" : 0,
      "begin_54" : 0,
      "begin_55" : 0,
      "begin_102" : 0,
      "begin_60" : 0,
      "begin_56" : 0,
      "begin_103" : 0,
      "begin_57" : 0,
      "begin_61" : 0,
      "begin_62" : 0,
      "begin_58" : 0
    },
    {
      "bottom" : "799_0",
      "alpha" : 2,
      "operation" : 1,
      "weights" : {

      },
      "fused_relu" : 0,
      "debug_info" : "804",
      "top" : "804",
      "type" : "elementwise",
      "name" : "804",
      "beta" : 0
    },
    {
      "top" : "10",
      "w" : 2,
      "h" : 4,
      "name" : "10",
      "nd_rank" : 5,
      "type" : "load_constant",
      "k" : 3,
      "bottom" : "",
      "debug_info" : "10",
      "n" : 3,
      "weights" : {

      },
      "constant_blob" : 257
    },
    {
      "bottom" : "804,10",
      "alpha" : 1,
      "operation" : 0,
      "weights" : {

      },
      "fused_relu" : 0,
      "debug_info" : "805",
      "top" : "805",
      "type" : "elementwise",
      "name" : "805",
      "beta" : 0
    },
    {
      "bottom" : "805",
      "alpha" : 32,
      "operation" : 1,
      "weights" : {

      },
      "fused_relu" : 0,
      "debug_info" : "xy6.1",
      "top" : "xy6.1",
      "type" : "elementwise",
      "name" : "xy6.1",
      "beta" : 0
    },
    {
      "bottom" : "799_1",
      "alpha" : 2,
      "operation" : 1,
      "weights" : {

      },
      "fused_relu" : 0,
      "debug_info" : "809",
      "top" : "809",
      "type" : "elementwise",
      "name" : "809",
      "beta" : 0
    },
    {
      "bottom" : "809",
      "alpha" : 2,
      "operation" : 13,
      "weights" : {

      },
      "fused_relu" : 0,
      "debug_info" : "810",
      "top" : "810",
      "type" : "elementwise",
      "name" : "810",
      "beta" : 0
    },
    {
      "top" : "9",
      "w" : 2,
      "h" : 4,
      "name" : "9",
      "nd_rank" : 5,
      "type" : "load_constant",
      "k" : 3,
      "bottom" : "",
      "debug_info" : "9",
      "n" : 3,
      "weights" : {

      },
      "constant_blob" : 259
    },
    {
      "bottom" : "810,9",
      "alpha" : 1,
      "operation" : 1,
      "weights" : {

      },
      "fused_relu" : 0,
      "debug_info" : "wh6.1",
      "top" : "wh6.1",
      "type" : "elementwise",
      "name" : "wh6.1",
      "beta" : 0
    },
    {
      "top" : "_inversed_xy7.1_y_0",
      "w" : 2,
      "h" : 1,
      "name" : "_inversed_xy7.1_y_0",
      "nd_rank" : 2,
      "type" : "load_constant",
      "k" : 1,
      "bottom" : "",
      "debug_info" : "_inversed_xy7.1_y_0",
      "n" : 1,
      "weights" : {

      },
      "constant_blob" : 261
    },
    {
      "bottom" : "xy6.1,_inversed_xy7.1_y_0",
      "alpha" : 1,
      "operation" : 1,
      "weights" : {

      },
      "fused_relu" : 0,
      "debug_info" : "_inversed_xy7.1",
      "nd_mode" : true,
      "top" : "_inversed_xy7.1",
      "type" : "elementwise",
      "name" : "_inversed_xy7.1",
      "beta" : 0
    },
    {
      "top" : "_inversed_wh7.1_y_0",
      "w" : 2,
      "h" : 1,
      "name" : "_inversed_wh7.1_y_0",
      "nd_rank" : 2,
      "type" : "load_constant",
      "k" : 1,
      "bottom" : "",
      "debug_info" : "_inversed_wh7.1_y_0",
      "n" : 1,
      "weights" : {

      },
      "constant_blob" : 263
    },
    {
      "bottom" : "wh6.1,_inversed_wh7.1_y_0",
      "alpha" : 1,
      "operation" : 1,
      "weights" : {

      },
      "fused_relu" : 0,
      "debug_info" : "_inversed_wh7.1",
      "nd_mode" : true,
      "top" : "_inversed_wh7.1",
      "type" : "elementwise",
      "name" : "_inversed_wh7.1",
      "beta" : 0
    },
    {
      "bottom" : "_inversed_xy7.1,_inversed_wh7.1,799_2",
      "weights" : {

      },
      "nd_mode" : true,
      "axis" : 4,
      "debug_info" : "y1.1",
      "top" : "y1.1",
      "type" : "general_concat",
      "name" : "y1.1"
    },
    {
      "name" : "819",
      "weights" : {

      },
      "dst_w" : 6,
      "version" : 1,
      "dst_n" : 1,
      "dst_nd_rank" : 3,
      "type" : "reshape",
      "dst_h" : -1,
      "mode" : 0,
      "dynamic_shape" : false,
      "bottom" : "y1.1",
      "debug_info" : "819",
      "dst_seq" : 1,
      "dst_k" : 1,
      "top" : "819"
    },
    {
      "bottom" : "743,781,819",
      "weights" : {

      },
      "nd_mode" : true,
      "debug_info" : "821",
      "axis" : 1,
      "top" : "output",
      "type" : "general_concat",
      "name" : "821",
      "attributes" : {
        "is_output" : 1
      }
    }
  ]
}